…
    G_optimizer_clipgrad: None
    G_scheduler_type: MultiStepLR
    G_scheduler_milestones: [60000, 90000, 120000, 240000, 24000000]
    G_scheduler_gamma: 0.5
    G_regularizer_orthstep: None
    G_regularizer_clipstep: None
    checkpoint_test: 10000
    checkpoint_save: 10000
    checkpoint_print: 10000
  ]
  opt_path: options/train_drnet.json
  is_train: True

25-05-12 08:25:39.740 : Random seed: 1738
25-05-12 08:25:39.883 : Number of train images: 31,005, iters: 31,005
25-05-12 08:25:42.003 : 
Networks name: DRNet
Params number: 99683721
Net structure:
DRNet(
  (prelu): PReLU(num_parameters=1)
  (conv_first): Conv2d(3, 96, kernel_size=(3, 3), stride=(1, 1), padding=(1, 1))
  (patch_embed): PatchEmbed(
    (proj): Conv2d(96, 96, kernel_size=(4, 4), stride=(4, 4))
    (norm): LayerNorm((96,), eps=1e-05, elementwise_affine=True)
  )
  (pos_drop): Dropout(p=0.0, inplace=False)
  (layers): ModuleList(
    (0): BasicLayer(
      dim=96, input_resolution=(64, 64), depth=8
      (blocks): ModuleList(
        (0): SwinTransformerBlock(
          dim=96, input_resolution=(64, 64), num_heads=8, window_size=8, shift_size=0, mlp_ratio=4.0
          (norm1): LayerNorm((96,), eps=1e-05, elementwise_affine=True)
          (attn): WindowAttention(
            dim=96, window_size=(8, 8), num_heads=8
            (qkv): Linear(in_features=96, out_features=288, bias=True)
            (attn_drop): Dropout(p=0.0, inplace=False)
            (proj): Linear(in_features=96, out_features=96, bias=True)
            (proj_drop): Dropout(p=0.0, inplace=False)
            (softmax): Softmax(dim=-1)
          )
          (drop_path): Identity()
          (norm2): LayerNorm((96,), eps=1e-05, elementwise_affine=True)
          (mlp): Mlp(
            (fc1): Linear(in_features=96, out_features=384, bias=True)
            (act): GELU(approximate='none')
            (fc2): Linear(in_features=384, out_features=96, bias=True)
            (drop): Dropout(p=0.0, inplace=False)
          )
        )
        (1): SwinTransformerBlock(
          dim=96, input_resolution=(64, 64), num_heads=8, window_size=8, shift_size=4, mlp_ratio=4.0
          (norm1): LayerNorm((96,), eps=1e-05, elementwise_affine=True)
          (attn): WindowAttention(
            dim=96, window_size=(8, 8), num_heads=8
            (qkv): Linear(in_features=96, out_features=288, bias=True)
            (attn_drop): Dropout(p=0.0, inplace=False)
            (proj): Linear(in_features=96, out_features=96, bias=True)
            (proj_drop): Dropout(p=0.0, inplace=False)
            (softmax): Softmax(dim=-1)
          )
          (drop_path): DropPath()
          (norm2): LayerNorm((96,), eps=1e-05, elementwise_affine=True)
          (mlp): Mlp(
            (fc1): Linear(in_features=96, out_features=384, bias=True)
            (act): GELU(approximate='none')
            (fc2): Linear(in_features=384, out_features=96, bias=True)
            (drop): Dropout(p=0.0, inplace=False)
          )
        )
        (2): SwinTransformerBlock(
          dim=96, input_resolution=(64, 64), num_heads=8, window_size=8, shift_size=0, mlp_ratio=4.0
          (norm1): LayerNorm((96,), eps=1e-05, elementwise_affine=True)
          (attn): WindowAttention(
            dim=96, window_size=(8, 8), num_heads=8
            (qkv): Linear(in_features=96, out_features=288, bias=True)
            (attn_drop): Dropout(p=0.0, inplace=False)
            (proj): Linear(in_features=96, out_features=96, bias=True)
            (proj_drop): Dropout(p=0.0, inplace=False)
            (softmax): Softmax(dim=-1)
          )
          (drop_path): DropPath()
          (norm2): LayerNorm((96,), eps=1e-05, elementwise_affine=True)
          (mlp): Mlp(
            (fc1): Linear(in_features=96, out_features=384, bias=True)
            (act): GELU(approximate='none')
            (fc2): Linear(in_features=384, out_features=96, bias=True)
            (drop): Dropout(p=0.0, inplace=False)
          )
        )
        (3): SwinTransformerBlock(
          dim=96, input_resolution=(64, 64), num_heads=8, window_size=8, shift_size=4, mlp_ratio=4.0
          (norm1): LayerNorm((96,), eps=1e-05, elementwise_affine=True)
          (attn): WindowAttention(
            dim=96, window_size=(8, 8), num_heads=8
            (qkv): Linear(in_features=96, out_features=288, bias=True)
            (attn_drop): Dropout(p=0.0, inplace=False)
            (proj): Linear(in_features=96, out_features=96, bias=True)
            (proj_drop): Dropout(p=0.0, inplace=False)
            (softmax): Softmax(dim=-1)
          )
          (drop_path): DropPath()
          (norm2): LayerNorm((96,), eps=1e-05, elementwise_affine=True)
          (mlp): Mlp(
            (fc1): Linear(in_features=96, out_features=384, bias=True)
            (act): GELU(approximate='none')
            (fc2): Linear(in_features=384, out_features=96, bias=True)
            (drop): Dropout(p=0.0, inplace=False)
          )
        )
        (4): SwinTransformerBlock(
          dim=96, input_resolution=(64, 64), num_heads=8, window_size=8, shift_size=0, mlp_ratio=4.0
          (norm1): LayerNorm((96,), eps=1e-05, elementwise_affine=True)
          (attn): WindowAttention(
            dim=96, window_size=(8, 8), num_heads=8
            (qkv): Linear(in_features=96, out_features=288, bias=True)
            (attn_drop): Dropout(p=0.0, inplace=False)
            (proj): Linear(in_features=96, out_features=96, bias=True)
            (proj_drop): Dropout(p=0.0, inplace=False)
            (softmax): Softmax(dim=-1)
          )
          (drop_path): DropPath()
          (norm2): LayerNorm((96,), eps=1e-05, elementwise_affine=True)
          (mlp): Mlp(
            (fc1): Linear(in_features=96, out_features=384, bias=True)
            (act): GELU(approximate='none')
            (fc2): Linear(in_features=384, out_features=96, bias=True)
            (drop): Dropout(p=0.0, inplace=False)
          )
        )
        (5): SwinTransformerBlock(
          dim=96, input_resolution=(64, 64), num_heads=8, window_size=8, shift_size=4, mlp_ratio=4.0
          (norm1): LayerNorm((96,), eps=1e-05, elementwise_affine=True)
          (attn): WindowAttention(
            dim=96, window_size=(8, 8), num_heads=8
            (qkv): Linear(in_features=96, out_features=288, bias=True)
            (attn_drop): Dropout(p=0.0, inplace=False)
            (proj): Linear(in_features=96, out_features=96, bias=True)
            (proj_drop): Dropout(p=0.0, inplace=False)
            (softmax): Softmax(dim=-1)
          )
          (drop_path): DropPath()
          (norm2): LayerNorm((96,), eps=1e-05, elementwise_affine=True)
          (mlp): Mlp(
            (fc1): Linear(in_features=96, out_features=384, bias=True)
            (act): GELU(approximate='none')
            (fc2): Linear(in_features=384, out_features=96, bias=True)
            (drop): Dropout(p=0.0, inplace=False)
          )
        )
        (6): SwinTransformerBlock(
          dim=96, input_resolution=(64, 64), num_heads=8, window_size=8, shift_size=0, mlp_ratio=4.0
          (norm1): LayerNorm((96,), eps=1e-05, elementwise_affine=True)
          (attn): WindowAttention(
            dim=96, window_size=(8, 8), num_heads=8
            (qkv): Linear(in_features=96, out_features=288, bias=True)
            (attn_drop): Dropout(p=0.0, inplace=False)
            (proj): Linear(in_features=96, out_features=96, bias=True)
            (proj_drop): Dropout(p=0.0, inplace=False)
            (softmax): Softmax(dim=-1)
          )
          (drop_path): DropPath()
          (norm2): LayerNorm((96,), eps=1e-05, elementwise_affine=True)
          (mlp): Mlp(
            (fc1): Linear(in_features=96, out_features=384, bias=True)
            (act): GELU(approximate='none')
            (fc2): Linear(in_features=384, out_features=96, bias=True)
            (drop): Dropout(p=0.0, inplace=False)
          )
        )
        (7): SwinTransformerBlock(
          dim=96, input_resolution=(64, 64), num_heads=8, window_size=8, shift_size=4, mlp_ratio=4.0
          (norm1): LayerNorm((96,), eps=1e-05, elementwise_affine=True)
          (attn): WindowAttention(
            dim=96, window_size=(8, 8), num_heads=8
            (qkv): Linear(in_features=96, out_features=288, bias=True)
            (attn_drop): Dropout(p=0.0, inplace=False)
            (proj): Linear(in_features=96, out_features=96, bias=True)
            (proj_drop): Dropout(p=0.0, inplace=False)
            (softmax): Softmax(dim=-1)
          )
          (drop_path): DropPath()
          (norm2): LayerNorm((96,), eps=1e-05, elementwise_affine=True)
          (mlp): Mlp(
            (fc1): Linear(in_features=96, out_features=384, bias=True)
            (act): GELU(approximate='none')
            (fc2): Linear(in_features=384, out_features=96, bias=True)
            (drop): Dropout(p=0.0, inplace=False)
          )
        )
      )
      (downsample): PatchMerging(
        input_resolution=(64, 64), dim=96
        (reduction): Linear(in_features=384, out_features=192, bias=False)
        (norm): LayerNorm((384,), eps=1e-05, elementwise_affine=True)
      )
    )
    (1): BasicLayer(
      dim=192, input_resolution=(32, 32), depth=8
      (blocks): ModuleList(
        (0): SwinTransformerBlock(
          dim=192, input_resolution=(32, 32), num_heads=8, window_size=8, shift_size=0, mlp_ratio=4.0
          (norm1): LayerNorm((192,), eps=1e-05, elementwise_affine=True)
          (attn): WindowAttention(
            dim=192, window_size=(8, 8), num_heads=8
            (qkv): Linear(in_features=192, out_features=576, bias=True)
            (attn_drop): Dropout(p=0.0, inplace=False)
            (proj): Linear(in_features=192, out_features=192, bias=True)
            (proj_drop): Dropout(p=0.0, inplace=False)
            (softmax): Softmax(dim=-1)
          )
          (drop_path): DropPath()
          (norm2): LayerNorm((192,), eps=1e-05, elementwise_affine=True)
          (mlp): Mlp(
            (fc1): Linear(in_features=192, out_features=768, bias=True)
            (act): GELU(approximate='none')
            (fc2): Linear(in_features=768, out_features=192, bias=True)
            (drop): Dropout(p=0.0, inplace=False)
          )
        )
        (1): SwinTransformerBlock(
          dim=192, input_resolution=(32, 32), num_heads=8, window_size=8, shift_size=4, mlp_ratio=4.0
          (norm1): LayerNorm((192,), eps=1e-05, elementwise_affine=True)
          (attn): WindowAttention(
            dim=192, window_size=(8, 8), num_heads=8
            (qkv): Linear(in_features=192, out_features=576, bias=True)
            (attn_drop): Dropout(p=0.0, inplace=False)
            (proj): Linear(in_features=192, out_features=192, bias=True)
            (proj_drop): Dropout(p=0.0, inplace=False)
            (softmax): Softmax(dim=-1)
          )
          (drop_path): DropPath()
          (norm2): LayerNorm((192,), eps=1e-05, elementwise_affine=True)
          (mlp): Mlp(
            (fc1): Linear(in_features=192, out_features=768, bias=True)
            (act): GELU(approximate='none')
            (fc2): Linear(in_features=768, out_features=192, bias=True)
            (drop): Dropout(p=0.0, inplace=False)
          )
        )
        (2): SwinTransformerBlock(
          dim=192, input_resolution=(32, 32), num_heads=8, window_size=8, shift_size=0, mlp_ratio=4.0
          (norm1): LayerNorm((192,), eps=1e-05, elementwise_affine=True)
          (attn): WindowAttention(
            dim=192, window_size=(8, 8), num_heads=8
            (qkv): Linear(in_features=192, out_features=576, bias=True)
            (attn_drop): Dropout(p=0.0, inplace=False)
            (proj): Linear(in_features=192, out_features=192, bias=True)
            (proj_drop): Dropout(p=0.0, inplace=False)
            (softmax): Softmax(dim=-1)
          )
          (drop_path): DropPath()
          (norm2): LayerNorm((192,), eps=1e-05, elementwise_affine=True)
          (mlp): Mlp(
            (fc1): Linear(in_features=192, out_features=768, bias=True)
            (act): GELU(approximate='none')
            (fc2): Linear(in_features=768, out_features=192, bias=True)
            (drop): Dropout(p=0.0, inplace=False)
          )
        )
        (3): SwinTransformerBlock(
          dim=192, input_resolution=(32, 32), num_heads=8, window_size=8, shift_size=4, mlp_ratio=4.0
          (norm1): LayerNorm((192,), eps=1e-05, elementwise_affine=True)
          (attn): WindowAttention(
            dim=192, window_size=(8, 8), num_heads=8
            (qkv): Linear(in_features=192, out_features=576, bias=True)
            (attn_drop): Dropout(p=0.0, inplace=False)
            (proj): Linear(in_features=192, out_features=192, bias=True)
            (proj_drop): Dropout(p=0.0, inplace=False)
            (softmax): Softmax(dim=-1)
          )
          (drop_path): DropPath()
          (norm2): LayerNorm((192,), eps=1e-05, elementwise_affine=True)
          (mlp): Mlp(
            (fc1): Linear(in_features=192, out_features=768, bias=True)
            (act): GELU(approximate='none')
            (fc2): Linear(in_features=768, out_features=192, bias=True)
            (drop): Dropout(p=0.0, inplace=False)
          )
        )
        (4): SwinTransformerBlock(
          dim=192, input_resolution=(32, 32), num_heads=8, window_size=8, shift_size=0, mlp_ratio=4.0
          (norm1): LayerNorm((192,), eps=1e-05, elementwise_affine=True)
          (attn): WindowAttention(
            dim=192, window_size=(8, 8), num_heads=8
            (qkv): Linear(in_features=192, out_features=576, bias=True)
            (attn_drop): Dropout(p=0.0, inplace=False)
            (proj): Linear(in_features=192, out_features=192, bias=True)
            (proj_drop): Dropout(p=0.0, inplace=False)
            (softmax): Softmax(dim=-1)
          )
          (drop_path): DropPath()
          (norm2): LayerNorm((192,), eps=1e-05, elementwise_affine=True)
          (mlp): Mlp(
            (fc1): Linear(in_features=192, out_features=768, bias=True)
            (act): GELU(approximate='none')
            (fc2): Linear(in_features=768, out_features=192, bias=True)
            (drop): Dropout(p=0.0, inplace=False)
          )
        )
        (5): SwinTransformerBlock(
          dim=192, input_resolution=(32, 32), num_heads=8, window_size=8, shift_size=4, mlp_ratio=4.0
          (norm1): LayerNorm((192,), eps=1e-05, elementwise_affine=True)
          (attn): WindowAttention(
            dim=192, window_size=(8, 8), num_heads=8
            (qkv): Linear(in_features=192, out_features=576, bias=True)
            (attn_drop): Dropout(p=0.0, inplace=False)
            (proj): Linear(in_features=192, out_features=192, bias=True)
            (proj_drop): Dropout(p=0.0, inplace=False)
            (softmax): Softmax(dim=-1)
          )
          (drop_path): DropPath()
          (norm2): LayerNorm((192,), eps=1e-05, elementwise_affine=True)
          (mlp): Mlp(
            (fc1): Linear(in_features=192, out_features=768, bias=True)
            (act): GELU(approximate='none')
            (fc2): Linear(in_features=768, out_features=192, bias=True)
            (drop): Dropout(p=0.0, inplace=False)
          )
        )
        (6): SwinTransformerBlock(
          dim=192, input_resolution=(32, 32), num_heads=8, window_size=8, shift_size=0, mlp_ratio=4.0
          (norm1): LayerNorm((192,), eps=1e-05, elementwise_affine=True)
          (attn): WindowAttention(
            dim=192, window_size=(8, 8), num_heads=8
            (qkv): Linear(in_features=192, out_features=576, bias=True)
            (attn_drop): Dropout(p=0.0, inplace=False)
            (proj): Linear(in_features=192, out_features=192, bias=True)
            (proj_drop): Dropout(p=0.0, inplace=False)
            (softmax): Softmax(dim=-1)
          )
          (drop_path): DropPath()
          (norm2): LayerNorm((192,), eps=1e-05, elementwise_affine=True)
          (mlp): Mlp(
            (fc1): Linear(in_features=192, out_features=768, bias=True)
            (act): GELU(approximate='none')
            (fc2): Linear(in_features=768, out_features=192, bias=True)
            (drop): Dropout(p=0.0, inplace=False)
          )
        )
        (7): SwinTransformerBlock(
          dim=192, input_resolution=(32, 32), num_heads=8, window_size=8, shift_size=4, mlp_ratio=4.0
          (norm1): LayerNorm((192,), eps=1e-05, elementwise_affine=True)
          (attn): WindowAttention(
            dim=192, window_size=(8, 8), num_heads=8
            (qkv): Linear(in_features=192, out_features=576, bias=True)
            (attn_drop): Dropout(p=0.0, inplace=False)
            (proj): Linear(in_features=192, out_features=192, bias=True)
            (proj_drop): Dropout(p=0.0, inplace=False)
            (softmax): Softmax(dim=-1)
          )
          (drop_path): DropPath()
          (norm2): LayerNorm((192,), eps=1e-05, elementwise_affine=True)
          (mlp): Mlp(
            (fc1): Linear(in_features=192, out_features=768, bias=True)
            (act): GELU(approximate='none')
            (fc2): Linear(in_features=768, out_features=192, bias=True)
            (drop): Dropout(p=0.0, inplace=False)
          )
        )
      )
      (downsample): PatchMerging(
        input_resolution=(32, 32), dim=192
        (reduction): Linear(in_features=768, out_features=384, bias=False)
        (norm): LayerNorm((768,), eps=1e-05, elementwise_affine=True)
      )
    )
    (2): BasicLayer(
      dim=384, input_resolution=(16, 16), depth=8
      (blocks): ModuleList(
        (0): SwinTransformerBlock(
          dim=384, input_resolution=(16, 16), num_heads=8, window_size=8, shift_size=0, mlp_ratio=4.0
          (norm1): LayerNorm((384,), eps=1e-05, elementwise_affine=True)
          (attn): WindowAttention(
            dim=384, window_size=(8, 8), num_heads=8
            (qkv): Linear(in_features=384, out_features=1152, bias=True)
            (attn_drop): Dropout(p=0.0, inplace=False)
            (proj): Linear(in_features=384, out_features=384, bias=True)
            (proj_drop): Dropout(p=0.0, inplace=False)
            (softmax): Softmax(dim=-1)
          )
          (drop_path): DropPath()
          (norm2): LayerNorm((384,), eps=1e-05, elementwise_affine=True)
          (mlp): Mlp(
            (fc1): Linear(in_features=384, out_features=1536, bias=True)
            (act): GELU(approximate='none')
            (fc2): Linear(in_features=1536, out_features=384, bias=True)
            (drop): Dropout(p=0.0, inplace=False)
          )
        )
        (1): SwinTransformerBlock(
          dim=384, input_resolution=(16, 16), num_heads=8, window_size=8, shift_size=4, mlp_ratio=4.0
          (norm1): LayerNorm((384,), eps=1e-05, elementwise_affine=True)
          (attn): WindowAttention(
            dim=384, window_size=(8, 8), num_heads=8
            (qkv): Linear(in_features=384, out_features=1152, bias=True)
            (attn_drop): Dropout(p=0.0, inplace=False)
            (proj): Linear(in_features=384, out_features=384, bias=True)
            (proj_drop): Dropout(p=0.0, inplace=False)
            (softmax): Softmax(dim=-1)
          )
          (drop_path): DropPath()
          (norm2): LayerNorm((384,), eps=1e-05, elementwise_affine=True)
          (mlp): Mlp(
            (fc1): Linear(in_features=384, out_features=1536, bias=True)
            (act): GELU(approximate='none')
            (fc2): Linear(in_features=1536, out_features=384, bias=True)
            (drop): Dropout(p=0.0, inplace=False)
          )
        )
        (2): SwinTransformerBlock(
          dim=384, input_resolution=(16, 16), num_heads=8, window_size=8, shift_size=0, mlp_ratio=4.0
          (norm1): LayerNorm((384,), eps=1e-05, elementwise_affine=True)
          (attn): WindowAttention(
            dim=384, window_size=(8, 8), num_heads=8
            (qkv): Linear(in_features=384, out_features=1152, bias=True)
            (attn_drop): Dropout(p=0.0, inplace=False)
            (proj): Linear(in_features=384, out_features=384, bias=True)
            (proj_drop): Dropout(p=0.0, inplace=False)
            (softmax): Softmax(dim=-1)
          )
          (drop_path): DropPath()
          (norm2): LayerNorm((384,), eps=1e-05, elementwise_affine=True)
          (mlp): Mlp(
            (fc1): Linear(in_features=384, out_features=1536, bias=True)
            (act): GELU(approximate='none')
            (fc2): Linear(in_features=1536, out_features=384, bias=True)
            (drop): Dropout(p=0.0, inplace=False)
          )
        )
        (3): SwinTransformerBlock(
          dim=384, input_resolution=(16, 16), num_heads=8, window_size=8, shift_size=4, mlp_ratio=4.0
          (norm1): LayerNorm((384,), eps=1e-05, elementwise_affine=True)
          (attn): WindowAttention(
            dim=384, window_size=(8, 8), num_heads=8
            (qkv): Linear(in_features=384, out_features=1152, bias=True)
            (attn_drop): Dropout(p=0.0, inplace=False)
            (proj): Linear(in_features=384, out_features=384, bias=True)
            (proj_drop): Dropout(p=0.0, inplace=False)
            (softmax): Softmax(dim=-1)
          )
          (drop_path): DropPath()
          (norm2): LayerNorm((384,), eps=1e-05, elementwise_affine=True)
          (mlp): Mlp(
            (fc1): Linear(in_features=384, out_features=1536, bias=True)
            (act): GELU(approximate='none')
            (fc2): Linear(in_features=1536, out_features=384, bias=True)
            (drop): Dropout(p=0.0, inplace=False)
          )
        )
        (4): SwinTransformerBlock(
          dim=384, input_resolution=(16, 16), num_heads=8, window_size=8, shift_size=0, mlp_ratio=4.0
          (norm1): LayerNorm((384,), eps=1e-05, elementwise_affine=True)
          (attn): WindowAttention(
            dim=384, window_size=(8, 8), num_heads=8
            (qkv): Linear(in_features=384, out_features=1152, bias=True)
            (attn_drop): Dropout(p=0.0, inplace=False)
            (proj): Linear(in_features=384, out_features=384, bias=True)
            (proj_drop): Dropout(p=0.0, inplace=False)
            (softmax): Softmax(dim=-1)
          )
          (drop_path): DropPath()
          (norm2): LayerNorm((384,), eps=1e-05, elementwise_affine=True)
          (mlp): Mlp(
            (fc1): Linear(in_features=384, out_features=1536, bias=True)
            (act): GELU(approximate='none')
            (fc2): Linear(in_features=1536, out_features=384, bias=True)
            (drop): Dropout(p=0.0, inplace=False)
          )
        )
        (5): SwinTransformerBlock(
          dim=384, input_resolution=(16, 16), num_heads=8, window_size=8, shift_size=4, mlp_ratio=4.0
          (norm1): LayerNorm((384,), eps=1e-05, elementwise_affine=True)
          (attn): WindowAttention(
            dim=384, window_size=(8, 8), num_heads=8
            (qkv): Linear(in_features=384, out_features=1152, bias=True)
            (attn_drop): Dropout(p=0.0, inplace=False)
            (proj): Linear(in_features=384, out_features=384, bias=True)
            (proj_drop): Dropout(p=0.0, inplace=False)
            (softmax): Softmax(dim=-1)
          )
          (drop_path): DropPath()
          (norm2): LayerNorm((384,), eps=1e-05, elementwise_affine=True)
          (mlp): Mlp(
            (fc1): Linear(in_features=384, out_features=1536, bias=True)
            (act): GELU(approximate='none')
            (fc2): Linear(in_features=1536, out_features=384, bias=True)
            (drop): Dropout(p=0.0, inplace=False)
          )
        )
        (6): SwinTransformerBlock(
          dim=384, input_resolution=(16, 16), num_heads=8, window_size=8, shift_size=0, mlp_ratio=4.0
          (norm1): LayerNorm((384,), eps=1e-05, elementwise_affine=True)
          (attn): WindowAttention(
            dim=384, window_size=(8, 8), num_heads=8
            (qkv): Linear(in_features=384, out_features=1152, bias=True)
            (attn_drop): Dropout(p=0.0, inplace=False)
            (proj): Linear(in_features=384, out_features=384, bias=True)
            (proj_drop): Dropout(p=0.0, inplace=False)
            (softmax): Softmax(dim=-1)
          )
          (drop_path): DropPath()
          (norm2): LayerNorm((384,), eps=1e-05, elementwise_affine=True)
          (mlp): Mlp(
            (fc1): Linear(in_features=384, out_features=1536, bias=True)
            (act): GELU(approximate='none')
            (fc2): Linear(in_features=1536, out_features=384, bias=True)
            (drop): Dropout(p=0.0, inplace=False)
          )
        )
        (7): SwinTransformerBlock(
          dim=384, input_resolution=(16, 16), num_heads=8, window_size=8, shift_size=4, mlp_ratio=4.0
          (norm1): LayerNorm((384,), eps=1e-05, elementwise_affine=True)
          (attn): WindowAttention(
            dim=384, window_size=(8, 8), num_heads=8
            (qkv): Linear(in_features=384, out_features=1152, bias=True)
            (attn_drop): Dropout(p=0.0, inplace=False)
            (proj): Linear(in_features=384, out_features=384, bias=True)
            (proj_drop): Dropout(p=0.0, inplace=False)
            (softmax): Softmax(dim=-1)
          )
          (drop_path): DropPath()
          (norm2): LayerNorm((384,), eps=1e-05, elementwise_affine=True)
          (mlp): Mlp(
            (fc1): Linear(in_features=384, out_features=1536, bias=True)
            (act): GELU(approximate='none')
            (fc2): Linear(in_features=1536, out_features=384, bias=True)
            (drop): Dropout(p=0.0, inplace=False)
          )
        )
      )
      (downsample): PatchMerging(
        input_resolution=(16, 16), dim=384
        (reduction): Linear(in_features=1536, out_features=768, bias=False)
        (norm): LayerNorm((1536,), eps=1e-05, elementwise_affine=True)
      )
    )
    (3): BasicLayer(
      dim=768, input_resolution=(8, 8), depth=8
      (blocks): ModuleList(
        (0-7): 8 x SwinTransformerBlock(
          dim=768, input_resolution=(8, 8), num_heads=8, window_size=8, shift_size=0, mlp_ratio=4.0
          (norm1): LayerNorm((768,), eps=1e-05, elementwise_affine=True)
          (attn): WindowAttention(
            dim=768, window_size=(8, 8), num_heads=8
            (qkv): Linear(in_features=768, out_features=2304, bias=True)
            (attn_drop): Dropout(p=0.0, inplace=False)
            (proj): Linear(in_features=768, out_features=768, bias=True)
            (proj_drop): Dropout(p=0.0, inplace=False)
            (softmax): Softmax(dim=-1)
          )
          (drop_path): DropPath()
          (norm2): LayerNorm((768,), eps=1e-05, elementwise_affine=True)
          (mlp): Mlp(
            (fc1): Linear(in_features=768, out_features=3072, bias=True)
            (act): GELU(approximate='none')
            (fc2): Linear(in_features=3072, out_features=768, bias=True)
            (drop): Dropout(p=0.0, inplace=False)
          )
        )
      )
    )
  )
  (layers_up): ModuleList(
    (0): UpSample(
      (conv): Conv2d(768, 384, kernel_size=(1, 1), stride=(1, 1), bias=False)
      (up_p): Sequential(
        (0): Conv2d(768, 1536, kernel_size=(1, 1), stride=(1, 1), bias=False)
        (1): PReLU(num_parameters=1)
        (2): PixelShuffle(upscale_factor=2)
        (3): Conv2d(384, 384, kernel_size=(1, 1), stride=(1, 1), bias=False)
      )
      (up_b): Sequential(
        (0): Conv2d(768, 768, kernel_size=(1, 1), stride=(1, 1))
        (1): PReLU(num_parameters=1)
        (2): Upsample(scale_factor=2.0, mode='bilinear')
        (3): Conv2d(768, 384, kernel_size=(1, 1), stride=(1, 1), bias=False)
      )
    )
    (1): BasicLayer_up(
      (blocks): ModuleList(
        (0): SwinTransformerBlock(
          dim=384, input_resolution=(16, 16), num_heads=8, window_size=8, shift_size=0, mlp_ratio=4.0
          (norm1): LayerNorm((384,), eps=1e-05, elementwise_affine=True)
          (attn): WindowAttention(
            dim=384, window_size=(8, 8), num_heads=8
            (qkv): Linear(in_features=384, out_features=1152, bias=True)
            (attn_drop): Dropout(p=0.0, inplace=False)
            (proj): Linear(in_features=384, out_features=384, bias=True)
            (proj_drop): Dropout(p=0.0, inplace=False)
            (softmax): Softmax(dim=-1)
          )
          (drop_path): DropPath()
          (norm2): LayerNorm((384,), eps=1e-05, elementwise_affine=True)
          (mlp): Mlp(
            (fc1): Linear(in_features=384, out_features=1536, bias=True)
            (act): GELU(approximate='none')
            (fc2): Linear(in_features=1536, out_features=384, bias=True)
            (drop): Dropout(p=0.0, inplace=False)
          )
        )
        (1): SwinTransformerBlock(
          dim=384, input_resolution=(16, 16), num_heads=8, window_size=8, shift_size=4, mlp_ratio=4.0
          (norm1): LayerNorm((384,), eps=1e-05, elementwise_affine=True)
          (attn): WindowAttention(
            dim=384, window_size=(8, 8), num_heads=8
            (qkv): Linear(in_features=384, out_features=1152, bias=True)
            (attn_drop): Dropout(p=0.0, inplace=False)
            (proj): Linear(in_features=384, out_features=384, bias=True)
            (proj_drop): Dropout(p=0.0, inplace=False)
            (softmax): Softmax(dim=-1)
          )
          (drop_path): DropPath()
          (norm2): LayerNorm((384,), eps=1e-05, elementwise_affine=True)
          (mlp): Mlp(
            (fc1): Linear(in_features=384, out_features=1536, bias=True)
            (act): GELU(approximate='none')
            (fc2): Linear(in_features=1536, out_features=384, bias=True)
            (drop): Dropout(p=0.0, inplace=False)
          )
        )
        (2): SwinTransformerBlock(
          dim=384, input_resolution=(16, 16), num_heads=8, window_size=8, shift_size=0, mlp_ratio=4.0
          (norm1): LayerNorm((384,), eps=1e-05, elementwise_affine=True)
          (attn): WindowAttention(
            dim=384, window_size=(8, 8), num_heads=8
            (qkv): Linear(in_features=384, out_features=1152, bias=True)
            (attn_drop): Dropout(p=0.0, inplace=False)
            (proj): Linear(in_features=384, out_features=384, bias=True)
            (proj_drop): Dropout(p=0.0, inplace=False)
            (softmax): Softmax(dim=-1)
          )
          (drop_path): DropPath()
          (norm2): LayerNorm((384,), eps=1e-05, elementwise_affine=True)
          (mlp): Mlp(
            (fc1): Linear(in_features=384, out_features=1536, bias=True)
            (act): GELU(approximate='none')
            (fc2): Linear(in_features=1536, out_features=384, bias=True)
            (drop): Dropout(p=0.0, inplace=False)
          )
        )
        (3): SwinTransformerBlock(
          dim=384, input_resolution=(16, 16), num_heads=8, window_size=8, shift_size=4, mlp_ratio=4.0
          (norm1): LayerNorm((384,), eps=1e-05, elementwise_affine=True)
          (attn): WindowAttention(
            dim=384, window_size=(8, 8), num_heads=8
            (qkv): Linear(in_features=384, out_features=1152, bias=True)
            (attn_drop): Dropout(p=0.0, inplace=False)
            (proj): Linear(in_features=384, out_features=384, bias=True)
            (proj_drop): Dropout(p=0.0, inplace=False)
            (softmax): Softmax(dim=-1)
          )
          (drop_path): DropPath()
          (norm2): LayerNorm((384,), eps=1e-05, elementwise_affine=True)
          (mlp): Mlp(
            (fc1): Linear(in_features=384, out_features=1536, bias=True)
            (act): GELU(approximate='none')
            (fc2): Linear(in_features=1536, out_features=384, bias=True)
            (drop): Dropout(p=0.0, inplace=False)
          )
        )
        (4): SwinTransformerBlock(
          dim=384, input_resolution=(16, 16), num_heads=8, window_size=8, shift_size=0, mlp_ratio=4.0
          (norm1): LayerNorm((384,), eps=1e-05, elementwise_affine=True)
          (attn): WindowAttention(
            dim=384, window_size=(8, 8), num_heads=8
            (qkv): Linear(in_features=384, out_features=1152, bias=True)
            (attn_drop): Dropout(p=0.0, inplace=False)
            (proj): Linear(in_features=384, out_features=384, bias=True)
            (proj_drop): Dropout(p=0.0, inplace=False)
            (softmax): Softmax(dim=-1)
          )
          (drop_path): DropPath()
          (norm2): LayerNorm((384,), eps=1e-05, elementwise_affine=True)
          (mlp): Mlp(
            (fc1): Linear(in_features=384, out_features=1536, bias=True)
            (act): GELU(approximate='none')
            (fc2): Linear(in_features=1536, out_features=384, bias=True)
            (drop): Dropout(p=0.0, inplace=False)
          )
        )
        (5): SwinTransformerBlock(
          dim=384, input_resolution=(16, 16), num_heads=8, window_size=8, shift_size=4, mlp_ratio=4.0
          (norm1): LayerNorm((384,), eps=1e-05, elementwise_affine=True)
          (attn): WindowAttention(
            dim=384, window_size=(8, 8), num_heads=8
            (qkv): Linear(in_features=384, out_features=1152, bias=True)
            (attn_drop): Dropout(p=0.0, inplace=False)
            (proj): Linear(in_features=384, out_features=384, bias=True)
            (proj_drop): Dropout(p=0.0, inplace=False)
            (softmax): Softmax(dim=-1)
          )
          (drop_path): DropPath()
          (norm2): LayerNorm((384,), eps=1e-05, elementwise_affine=True)
          (mlp): Mlp(
            (fc1): Linear(in_features=384, out_features=1536, bias=True)
            (act): GELU(approximate='none')
            (fc2): Linear(in_features=1536, out_features=384, bias=True)
            (drop): Dropout(p=0.0, inplace=False)
          )
        )
        (6): SwinTransformerBlock(
          dim=384, input_resolution=(16, 16), num_heads=8, window_size=8, shift_size=0, mlp_ratio=4.0
          (norm1): LayerNorm((384,), eps=1e-05, elementwise_affine=True)
          (attn): WindowAttention(
            dim=384, window_size=(8, 8), num_heads=8
            (qkv): Linear(in_features=384, out_features=1152, bias=True)
            (attn_drop): Dropout(p=0.0, inplace=False)
            (proj): Linear(in_features=384, out_features=384, bias=True)
            (proj_drop): Dropout(p=0.0, inplace=False)
            (softmax): Softmax(dim=-1)
          )
          (drop_path): DropPath()
          (norm2): LayerNorm((384,), eps=1e-05, elementwise_affine=True)
          (mlp): Mlp(
            (fc1): Linear(in_features=384, out_features=1536, bias=True)
            (act): GELU(approximate='none')
            (fc2): Linear(in_features=1536, out_features=384, bias=True)
            (drop): Dropout(p=0.0, inplace=False)
          )
        )
        (7): SwinTransformerBlock(
          dim=384, input_resolution=(16, 16), num_heads=8, window_size=8, shift_size=4, mlp_ratio=4.0
          (norm1): LayerNorm((384,), eps=1e-05, elementwise_affine=True)
          (attn): WindowAttention(
            dim=384, window_size=(8, 8), num_heads=8
            (qkv): Linear(in_features=384, out_features=1152, bias=True)
            (attn_drop): Dropout(p=0.0, inplace=False)
            (proj): Linear(in_features=384, out_features=384, bias=True)
            (proj_drop): Dropout(p=0.0, inplace=False)
            (softmax): Softmax(dim=-1)
          )
          (drop_path): DropPath()
          (norm2): LayerNorm((384,), eps=1e-05, elementwise_affine=True)
          (mlp): Mlp(
            (fc1): Linear(in_features=384, out_features=1536, bias=True)
            (act): GELU(approximate='none')
            (fc2): Linear(in_features=1536, out_features=384, bias=True)
            (drop): Dropout(p=0.0, inplace=False)
          )
        )
      )
      (upsample): UpSample(
        (conv): Conv2d(384, 192, kernel_size=(1, 1), stride=(1, 1), bias=False)
        (up_p): Sequential(
          (0): Conv2d(384, 768, kernel_size=(1, 1), stride=(1, 1), bias=False)
          (1): PReLU(num_parameters=1)
          (2): PixelShuffle(upscale_factor=2)
          (3): Conv2d(192, 192, kernel_size=(1, 1), stride=(1, 1), bias=False)
        )
        (up_b): Sequential(
          (0): Conv2d(384, 384, kernel_size=(1, 1), stride=(1, 1))
          (1): PReLU(num_parameters=1)
          (2): Upsample(scale_factor=2.0, mode='bilinear')
          (3): Conv2d(384, 192, kernel_size=(1, 1), stride=(1, 1), bias=False)
        )
      )
    )
    (2): BasicLayer_up(
      (blocks): ModuleList(
        (0): SwinTransformerBlock(
          dim=192, input_resolution=(32, 32), num_heads=8, window_size=8, shift_size=0, mlp_ratio=4.0
          (norm1): LayerNorm((192,), eps=1e-05, elementwise_affine=True)
          (attn): WindowAttention(
            dim=192, window_size=(8, 8), num_heads=8
            (qkv): Linear(in_features=192, out_features=576, bias=True)
            (attn_drop): Dropout(p=0.0, inplace=False)
            (proj): Linear(in_features=192, out_features=192, bias=True)
            (proj_drop): Dropout(p=0.0, inplace=False)
            (softmax): Softmax(dim=-1)
          )
          (drop_path): DropPath()
          (norm2): LayerNorm((192,), eps=1e-05, elementwise_affine=True)
          (mlp): Mlp(
            (fc1): Linear(in_features=192, out_features=768, bias=True)
            (act): GELU(approximate='none')
            (fc2): Linear(in_features=768, out_features=192, bias=True)
            (drop): Dropout(p=0.0, inplace=False)
          )
        )
        (1): SwinTransformerBlock(
          dim=192, input_resolution=(32, 32), num_heads=8, window_size=8, shift_size=4, mlp_ratio=4.0
          (norm1): LayerNorm((192,), eps=1e-05, elementwise_affine=True)
          (attn): WindowAttention(
            dim=192, window_size=(8, 8), num_heads=8
            (qkv): Linear(in_features=192, out_features=576, bias=True)
            (attn_drop): Dropout(p=0.0, inplace=False)
            (proj): Linear(in_features=192, out_features=192, bias=True)
            (proj_drop): Dropout(p=0.0, inplace=False)
            (softmax): Softmax(dim=-1)
          )
          (drop_path): DropPath()
          (norm2): LayerNorm((192,), eps=1e-05, elementwise_affine=True)
          (mlp): Mlp(
            (fc1): Linear(in_features=192, out_features=768, bias=True)
            (act): GELU(approximate='none')
            (fc2): Linear(in_features=768, out_features=192, bias=True)
            (drop): Dropout(p=0.0, inplace=False)
          )
        )
        (2): SwinTransformerBlock(
          dim=192, input_resolution=(32, 32), num_heads=8, window_size=8, shift_size=0, mlp_ratio=4.0
          (norm1): LayerNorm((192,), eps=1e-05, elementwise_affine=True)
          (attn): WindowAttention(
            dim=192, window_size=(8, 8), num_heads=8
            (qkv): Linear(in_features=192, out_features=576, bias=True)
            (attn_drop): Dropout(p=0.0, inplace=False)
            (proj): Linear(in_features=192, out_features=192, bias=True)
            (proj_drop): Dropout(p=0.0, inplace=False)
            (softmax): Softmax(dim=-1)
          )
          (drop_path): DropPath()
          (norm2): LayerNorm((192,), eps=1e-05, elementwise_affine=True)
          (mlp): Mlp(
            (fc1): Linear(in_features=192, out_features=768, bias=True)
            (act): GELU(approximate='none')
            (fc2): Linear(in_features=768, out_features=192, bias=True)
            (drop): Dropout(p=0.0, inplace=False)
          )
        )
        (3): SwinTransformerBlock(
          dim=192, input_resolution=(32, 32), num_heads=8, window_size=8, shift_size=4, mlp_ratio=4.0
          (norm1): LayerNorm((192,), eps=1e-05, elementwise_affine=True)
          (attn): WindowAttention(
            dim=192, window_size=(8, 8), num_heads=8
            (qkv): Linear(in_features=192, out_features=576, bias=True)
            (attn_drop): Dropout(p=0.0, inplace=False)
            (proj): Linear(in_features=192, out_features=192, bias=True)
            (proj_drop): Dropout(p=0.0, inplace=False)
            (softmax): Softmax(dim=-1)
          )
          (drop_path): DropPath()
          (norm2): LayerNorm((192,), eps=1e-05, elementwise_affine=True)
          (mlp): Mlp(
            (fc1): Linear(in_features=192, out_features=768, bias=True)
            (act): GELU(approximate='none')
            (fc2): Linear(in_features=768, out_features=192, bias=True)
            (drop): Dropout(p=0.0, inplace=False)
          )
        )
        (4): SwinTransformerBlock(
          dim=192, input_resolution=(32, 32), num_heads=8, window_size=8, shift_size=0, mlp_ratio=4.0
          (norm1): LayerNorm((192,), eps=1e-05, elementwise_affine=True)
          (attn): WindowAttention(
            dim=192, window_size=(8, 8), num_heads=8
            (qkv): Linear(in_features=192, out_features=576, bias=True)
            (attn_drop): Dropout(p=0.0, inplace=False)
            (proj): Linear(in_features=192, out_features=192, bias=True)
            (proj_drop): Dropout(p=0.0, inplace=False)
            (softmax): Softmax(dim=-1)
          )
          (drop_path): DropPath()
          (norm2): LayerNorm((192,), eps=1e-05, elementwise_affine=True)
          (mlp): Mlp(
            (fc1): Linear(in_features=192, out_features=768, bias=True)
            (act): GELU(approximate='none')
            (fc2): Linear(in_features=768, out_features=192, bias=True)
            (drop): Dropout(p=0.0, inplace=False)
          )
        )
        (5): SwinTransformerBlock(
          dim=192, input_resolution=(32, 32), num_heads=8, window_size=8, shift_size=4, mlp_ratio=4.0
          (norm1): LayerNorm((192,), eps=1e-05, elementwise_affine=True)
          (attn): WindowAttention(
            dim=192, window_size=(8, 8), num_heads=8
            (qkv): Linear(in_features=192, out_features=576, bias=True)
            (attn_drop): Dropout(p=0.0, inplace=False)
            (proj): Linear(in_features=192, out_features=192, bias=True)
            (proj_drop): Dropout(p=0.0, inplace=False)
            (softmax): Softmax(dim=-1)
          )
          (drop_path): DropPath()
          (norm2): LayerNorm((192,), eps=1e-05, elementwise_affine=True)
          (mlp): Mlp(
            (fc1): Linear(in_features=192, out_features=768, bias=True)
            (act): GELU(approximate='none')
            (fc2): Linear(in_features=768, out_features=192, bias=True)
            (drop): Dropout(p=0.0, inplace=False)
          )
        )
        (6): SwinTransformerBlock(
          dim=192, input_resolution=(32, 32), num_heads=8, window_size=8, shift_size=0, mlp_ratio=4.0
          (norm1): LayerNorm((192,), eps=1e-05, elementwise_affine=True)
          (attn): WindowAttention(
            dim=192, window_size=(8, 8), num_heads=8
            (qkv): Linear(in_features=192, out_features=576, bias=True)
            (attn_drop): Dropout(p=0.0, inplace=False)
            (proj): Linear(in_features=192, out_features=192, bias=True)
            (proj_drop): Dropout(p=0.0, inplace=False)
            (softmax): Softmax(dim=-1)
          )
          (drop_path): DropPath()
          (norm2): LayerNorm((192,), eps=1e-05, elementwise_affine=True)
          (mlp): Mlp(
            (fc1): Linear(in_features=192, out_features=768, bias=True)
            (act): GELU(approximate='none')
            (fc2): Linear(in_features=768, out_features=192, bias=True)
            (drop): Dropout(p=0.0, inplace=False)
          )
        )
        (7): SwinTransformerBlock(
          dim=192, input_resolution=(32, 32), num_heads=8, window_size=8, shift_size=4, mlp_ratio=4.0
          (norm1): LayerNorm((192,), eps=1e-05, elementwise_affine=True)
          (attn): WindowAttention(
            dim=192, window_size=(8, 8), num_heads=8
            (qkv): Linear(in_features=192, out_features=576, bias=True)
            (attn_drop): Dropout(p=0.0, inplace=False)
            (proj): Linear(in_features=192, out_features=192, bias=True)
            (proj_drop): Dropout(p=0.0, inplace=False)
            (softmax): Softmax(dim=-1)
          )
          (drop_path): DropPath()
          (norm2): LayerNorm((192,), eps=1e-05, elementwise_affine=True)
          (mlp): Mlp(
            (fc1): Linear(in_features=192, out_features=768, bias=True)
            (act): GELU(approximate='none')
            (fc2): Linear(in_features=768, out_features=192, bias=True)
            (drop): Dropout(p=0.0, inplace=False)
          )
        )
      )
      (upsample): UpSample(
        (conv): Conv2d(192, 96, kernel_size=(1, 1), stride=(1, 1), bias=False)
        (up_p): Sequential(
          (0): Conv2d(192, 384, kernel_size=(1, 1), stride=(1, 1), bias=False)
          (1): PReLU(num_parameters=1)
          (2): PixelShuffle(upscale_factor=2)
          (3): Conv2d(96, 96, kernel_size=(1, 1), stride=(1, 1), bias=False)
        )
        (up_b): Sequential(
          (0): Conv2d(192, 192, kernel_size=(1, 1), stride=(1, 1))
          (1): PReLU(num_parameters=1)
          (2): Upsample(scale_factor=2.0, mode='bilinear')
          (3): Conv2d(192, 96, kernel_size=(1, 1), stride=(1, 1), bias=False)
        )
      )
    )
    (3): BasicLayer_up(
      (blocks): ModuleList(
        (0): SwinTransformerBlock(
          dim=96, input_resolution=(64, 64), num_heads=8, window_size=8, shift_size=0, mlp_ratio=4.0
          (norm1): LayerNorm((96,), eps=1e-05, elementwise_affine=True)
          (attn): WindowAttention(
            dim=96, window_size=(8, 8), num_heads=8
            (qkv): Linear(in_features=96, out_features=288, bias=True)
            (attn_drop): Dropout(p=0.0, inplace=False)
            (proj): Linear(in_features=96, out_features=96, bias=True)
            (proj_drop): Dropout(p=0.0, inplace=False)
            (softmax): Softmax(dim=-1)
          )
          (drop_path): Identity()
          (norm2): LayerNorm((96,), eps=1e-05, elementwise_affine=True)
          (mlp): Mlp(
            (fc1): Linear(in_features=96, out_features=384, bias=True)
            (act): GELU(approximate='none')
            (fc2): Linear(in_features=384, out_features=96, bias=True)
            (drop): Dropout(p=0.0, inplace=False)
          )
        )
        (1): SwinTransformerBlock(
          dim=96, input_resolution=(64, 64), num_heads=8, window_size=8, shift_size=4, mlp_ratio=4.0
          (norm1): LayerNorm((96,), eps=1e-05, elementwise_affine=True)
          (attn): WindowAttention(
            dim=96, window_size=(8, 8), num_heads=8
            (qkv): Linear(in_features=96, out_features=288, bias=True)
            (attn_drop): Dropout(p=0.0, inplace=False)
            (proj): Linear(in_features=96, out_features=96, bias=True)
            (proj_drop): Dropout(p=0.0, inplace=False)
            (softmax): Softmax(dim=-1)
          )
          (drop_path): DropPath()
          (norm2): LayerNorm((96,), eps=1e-05, elementwise_affine=True)
          (mlp): Mlp(
            (fc1): Linear(in_features=96, out_features=384, bias=True)
            (act): GELU(approximate='none')
            (fc2): Linear(in_features=384, out_features=96, bias=True)
            (drop): Dropout(p=0.0, inplace=False)
          )
        )
        (2): SwinTransformerBlock(
          dim=96, input_resolution=(64, 64), num_heads=8, window_size=8, shift_size=0, mlp_ratio=4.0
          (norm1): LayerNorm((96,), eps=1e-05, elementwise_affine=True)
          (attn): WindowAttention(
            dim=96, window_size=(8, 8), num_heads=8
            (qkv): Linear(in_features=96, out_features=288, bias=True)
            (attn_drop): Dropout(p=0.0, inplace=False)
            (proj): Linear(in_features=96, out_features=96, bias=True)
            (proj_drop): Dropout(p=0.0, inplace=False)
            (softmax): Softmax(dim=-1)
          )
          (drop_path): DropPath()
          (norm2): LayerNorm((96,), eps=1e-05, elementwise_affine=True)
          (mlp): Mlp(
            (fc1): Linear(in_features=96, out_features=384, bias=True)
            (act): GELU(approximate='none')
            (fc2): Linear(in_features=384, out_features=96, bias=True)
            (drop): Dropout(p=0.0, inplace=False)
          )
        )
        (3): SwinTransformerBlock(
          dim=96, input_resolution=(64, 64), num_heads=8, window_size=8, shift_size=4, mlp_ratio=4.0
          (norm1): LayerNorm((96,), eps=1e-05, elementwise_affine=True)
          (attn): WindowAttention(
            dim=96, window_size=(8, 8), num_heads=8
            (qkv): Linear(in_features=96, out_features=288, bias=True)
            (attn_drop): Dropout(p=0.0, inplace=False)
            (proj): Linear(in_features=96, out_features=96, bias=True)
            (proj_drop): Dropout(p=0.0, inplace=False)
            (softmax): Softmax(dim=-1)
          )
          (drop_path): DropPath()
          (norm2): LayerNorm((96,), eps=1e-05, elementwise_affine=True)
          (mlp): Mlp(
            (fc1): Linear(in_features=96, out_features=384, bias=True)
            (act): GELU(approximate='none')
            (fc2): Linear(in_features=384, out_features=96, bias=True)
            (drop): Dropout(p=0.0, inplace=False)
          )
        )
        (4): SwinTransformerBlock(
          dim=96, input_resolution=(64, 64), num_heads=8, window_size=8, shift_size=0, mlp_ratio=4.0
          (norm1): LayerNorm((96,), eps=1e-05, elementwise_affine=True)
          (attn): WindowAttention(
            dim=96, window_size=(8, 8), num_heads=8
            (qkv): Linear(in_features=96, out_features=288, bias=True)
            (attn_drop): Dropout(p=0.0, inplace=False)
            (proj): Linear(in_features=96, out_features=96, bias=True)
            (proj_drop): Dropout(p=0.0, inplace=False)
            (softmax): Softmax(dim=-1)
          )
          (drop_path): DropPath()
          (norm2): LayerNorm((96,), eps=1e-05, elementwise_affine=True)
          (mlp): Mlp(
            (fc1): Linear(in_features=96, out_features=384, bias=True)
            (act): GELU(approximate='none')
            (fc2): Linear(in_features=384, out_features=96, bias=True)
            (drop): Dropout(p=0.0, inplace=False)
          )
        )
        (5): SwinTransformerBlock(
          dim=96, input_resolution=(64, 64), num_heads=8, window_size=8, shift_size=4, mlp_ratio=4.0
          (norm1): LayerNorm((96,), eps=1e-05, elementwise_affine=True)
          (attn): WindowAttention(
            dim=96, window_size=(8, 8), num_heads=8
            (qkv): Linear(in_features=96, out_features=288, bias=True)
            (attn_drop): Dropout(p=0.0, inplace=False)
            (proj): Linear(in_features=96, out_features=96, bias=True)
            (proj_drop): Dropout(p=0.0, inplace=False)
            (softmax): Softmax(dim=-1)
          )
          (drop_path): DropPath()
          (norm2): LayerNorm((96,), eps=1e-05, elementwise_affine=True)
          (mlp): Mlp(
            (fc1): Linear(in_features=96, out_features=384, bias=True)
            (act): GELU(approximate='none')
            (fc2): Linear(in_features=384, out_features=96, bias=True)
            (drop): Dropout(p=0.0, inplace=False)
          )
        )
        (6): SwinTransformerBlock(
          dim=96, input_resolution=(64, 64), num_heads=8, window_size=8, shift_size=0, mlp_ratio=4.0
          (norm1): LayerNorm((96,), eps=1e-05, elementwise_affine=True)
          (attn): WindowAttention(
            dim=96, window_size=(8, 8), num_heads=8
            (qkv): Linear(in_features=96, out_features=288, bias=True)
            (attn_drop): Dropout(p=0.0, inplace=False)
            (proj): Linear(in_features=96, out_features=96, bias=True)
            (proj_drop): Dropout(p=0.0, inplace=False)
            (softmax): Softmax(dim=-1)
          )
          (drop_path): DropPath()
          (norm2): LayerNorm((96,), eps=1e-05, elementwise_affine=True)
          (mlp): Mlp(
            (fc1): Linear(in_features=96, out_features=384, bias=True)
            (act): GELU(approximate='none')
            (fc2): Linear(in_features=384, out_features=96, bias=True)
            (drop): Dropout(p=0.0, inplace=False)
          )
        )
        (7): SwinTransformerBlock(
          dim=96, input_resolution=(64, 64), num_heads=8, window_size=8, shift_size=4, mlp_ratio=4.0
          (norm1): LayerNorm((96,), eps=1e-05, elementwise_affine=True)
          (attn): WindowAttention(
            dim=96, window_size=(8, 8), num_heads=8
            (qkv): Linear(in_features=96, out_features=288, bias=True)
            (attn_drop): Dropout(p=0.0, inplace=False)
            (proj): Linear(in_features=96, out_features=96, bias=True)
            (proj_drop): Dropout(p=0.0, inplace=False)
            (softmax): Softmax(dim=-1)
          )
          (drop_path): DropPath()
          (norm2): LayerNorm((96,), eps=1e-05, elementwise_affine=True)
          (mlp): Mlp(
            (fc1): Linear(in_features=96, out_features=384, bias=True)
            (act): GELU(approximate='none')
            (fc2): Linear(in_features=384, out_features=96, bias=True)
            (drop): Dropout(p=0.0, inplace=False)
          )
        )
      )
    )
  )
  (concat_back_dim): ModuleList(
    (0): Identity()
    (1): Linear(in_features=768, out_features=384, bias=True)
    (2): Linear(in_features=384, out_features=192, bias=True)
    (3): Linear(in_features=192, out_features=96, bias=True)
  )
  (norm): LayerNorm((768,), eps=1e-05, elementwise_affine=True)
  (norm_up): LayerNorm((96,), eps=1e-05, elementwise_affine=True)
  (up): UpSample(
    (conv): Conv2d(192, 96, kernel_size=(1, 1), stride=(1, 1), bias=False)
    (up_p): Sequential(
      (0): Conv2d(96, 1536, kernel_size=(1, 1), stride=(1, 1), bias=False)
      (1): PReLU(num_parameters=1)
      (2): PixelShuffle(upscale_factor=4)
      (3): Conv2d(96, 96, kernel_size=(1, 1), stride=(1, 1), bias=False)
    )
    (up_b): Sequential(
      (0): Conv2d(96, 96, kernel_size=(1, 1), stride=(1, 1))
      (1): PReLU(num_parameters=1)
      (2): Upsample(scale_factor=4.0, mode='bilinear')
      (3): Conv2d(96, 96, kernel_size=(1, 1), stride=(1, 1), bias=False)
    )
  )
  (output): Conv2d(96, 3, kernel_size=(3, 3), stride=(1, 1), padding=(1, 1), bias=False)
)

25-05-12 08:25:44.254 : 
 |  mean  |  min   |  max   |  std   || shape               
 |  0.250 |  0.250 |  0.250 |    nan | torch.Size([1]) || prelu.weight
 |  0.000 | -0.271 |  0.306 |  0.118 | torch.Size([96, 3, 3, 3]) || conv_first.weight
 | -0.004 | -0.254 |  0.242 |  0.136 | torch.Size([96]) || conv_first.bias
 |  0.000 | -0.458 |  0.415 |  0.053 | torch.Size([96, 96, 4, 4]) || patch_embed.proj.weight
…
    G_optimizer_clipgrad: None
    G_scheduler_type: MultiStepLR
    G_scheduler_milestones: [60000, 90000, 120000, 240000, 24000000]
    G_scheduler_gamma: 0.5
    G_regularizer_orthstep: None
    G_regularizer_clipstep: None
    checkpoint_test: 10000
    checkpoint_save: 10000
    checkpoint_print: 10000
  ]
  opt_path: options/train_drnet.json
  is_train: True

25-05-12 15:02:05.794 : Random seed: 7926
25-05-12 15:02:05.930 : Number of train images: 31,005, iters: 31,005
25-05-12 15:02:06.995 : 
Networks name: DRNet
Params number: 35274045
Net structure:
DRNet(
  (endconv): outconv(
    (conv): Conv2d(64, 3, kernel_size=(1, 1), stride=(1, 1))
  )
  (FE1): FE(
    (fe): Sequential(
      (0): Conv2d(3, 64, kernel_size=(3, 3), stride=(1, 1), padding=(1, 1))
      (1): PReLU(num_parameters=1)
      (2): Conv2d(64, 64, kernel_size=(3, 3), stride=(1, 1), padding=(1, 1))
      (3): PReLU(num_parameters=1)
      (4): Conv2d(64, 64, kernel_size=(3, 3), stride=(1, 1), padding=(1, 1))
      (5): PReLU(num_parameters=1)
    )
  )
  (conv1): Sequential(
    (0): Conv2d(3, 64, kernel_size=(1, 1), stride=(1, 1))
    (1): PReLU(num_parameters=1)
  )
  (Deep_FE1): Deep_FE(
    (fe): Sequential(
      (0): Conv2d(64, 64, kernel_size=(3, 3), stride=(1, 1), padding=(1, 1))
      (1): PReLU(num_parameters=1)
      (2): Conv2d(64, 64, kernel_size=(3, 3), stride=(1, 1), padding=(1, 1))
      (3): PReLU(num_parameters=1)
      (4): Conv2d(64, 64, kernel_size=(3, 3), stride=(1, 1), padding=(1, 1))
      (5): PReLU(num_parameters=1)
      (6): Conv2d(64, 64, kernel_size=(3, 3), stride=(1, 1), padding=(1, 1))
      (7): PReLU(num_parameters=1)
      (8): Conv2d(64, 64, kernel_size=(1, 1), stride=(1, 1))
    )
  )
  (FCN_SFT1): FCN_SFT(
    (fcn1): FCN(
      (fcn): Sequential(
        (0): Conv2d(64, 64, kernel_size=(3, 3), stride=(1, 1), padding=(1, 1))
        (1): PReLU(num_parameters=1)
        (2): Conv2d(64, 64, kernel_size=(3, 3), stride=(1, 1), padding=(1, 1))
        (3): PReLU(num_parameters=1)
        (4): Conv2d(64, 64, kernel_size=(3, 3), stride=(1, 1), padding=(1, 1))
        (5): PReLU(num_parameters=1)
      )
    )
    (fcn2): FCN(
      (fcn): Sequential(
        (0): Conv2d(64, 64, kernel_size=(3, 3), stride=(1, 1), padding=(1, 1))
        (1): PReLU(num_parameters=1)
        (2): Conv2d(64, 64, kernel_size=(3, 3), stride=(1, 1), padding=(1, 1))
        (3): PReLU(num_parameters=1)
        (4): Conv2d(64, 64, kernel_size=(3, 3), stride=(1, 1), padding=(1, 1))
        (5): PReLU(num_parameters=1)
      )
    )
    (sft1): SFTLayer(
      (SFT_scale_conv0): Conv2d(64, 64, kernel_size=(1, 1), stride=(1, 1))
      (SFT_scale_conv1): Conv2d(64, 64, kernel_size=(1, 1), stride=(1, 1))
      (SFT_shift_conv0): Conv2d(64, 64, kernel_size=(1, 1), stride=(1, 1))
      (SFT_shift_conv1): Conv2d(64, 64, kernel_size=(1, 1), stride=(1, 1))
      (Sigmoid): Sigmoid()
    )
    (sft2): SFTLayer(
      (SFT_scale_conv0): Conv2d(64, 64, kernel_size=(1, 1), stride=(1, 1))
      (SFT_scale_conv1): Conv2d(64, 64, kernel_size=(1, 1), stride=(1, 1))
      (SFT_shift_conv0): Conv2d(64, 64, kernel_size=(1, 1), stride=(1, 1))
      (SFT_shift_conv1): Conv2d(64, 64, kernel_size=(1, 1), stride=(1, 1))
      (Sigmoid): Sigmoid()
    )
    (con): Conv2d(128, 64, kernel_size=(1, 1), stride=(1, 1))
  )
  (JTF1): JTF(
    (unfold): Unfold(kernel_size=3, dilation=1, padding=1, stride=1)
    (target_kg): KG(
      (conv_first): Sequential(
        (0): Conv2d(64, 64, kernel_size=(3, 3), stride=(1, 1), padding=(1, 1))
        (1): PReLU(num_parameters=1)
        (2): Conv2d(64, 64, kernel_size=(3, 3), stride=(1, 1), padding=(1, 1))
        (3): PReLU(num_parameters=1)
        (4): Conv2d(64, 64, kernel_size=(3, 3), stride=(1, 1), padding=(1, 1))
        (5): PReLU(num_parameters=1)
        (6): Conv2d(64, 64, kernel_size=(3, 3), stride=(1, 1), padding=(1, 1))
        (7): PReLU(num_parameters=1)
        (8): Conv2d(64, 144, kernel_size=(1, 1), stride=(1, 1))
      )
    )
    (guidance_kg): KG(
      (conv_first): Sequential(
        (0): Conv2d(64, 64, kernel_size=(3, 3), stride=(1, 1), padding=(1, 1))
        (1): PReLU(num_parameters=1)
        (2): Conv2d(64, 64, kernel_size=(3, 3), stride=(1, 1), padding=(1, 1))
        (3): PReLU(num_parameters=1)
        (4): Conv2d(64, 64, kernel_size=(3, 3), stride=(1, 1), padding=(1, 1))
        (5): PReLU(num_parameters=1)
        (6): Conv2d(64, 64, kernel_size=(3, 3), stride=(1, 1), padding=(1, 1))
        (7): PReLU(num_parameters=1)
        (8): Conv2d(64, 144, kernel_size=(1, 1), stride=(1, 1))
      )
    )
    (jbf_conv): Sequential(
      (0): Conv2d(64, 64, kernel_size=(3, 3), stride=(1, 1), padding=(1, 1))
      (1): PReLU(num_parameters=1)
      (2): Conv2d(64, 64, kernel_size=(3, 3), stride=(1, 1), padding=(1, 1))
    )
  )
  (JTF11): JTF(
    (unfold): Unfold(kernel_size=3, dilation=1, padding=1, stride=1)
    (target_kg): KG(
      (conv_first): Sequential(
        (0): Conv2d(64, 64, kernel_size=(3, 3), stride=(1, 1), padding=(1, 1))
        (1): PReLU(num_parameters=1)
        (2): Conv2d(64, 64, kernel_size=(3, 3), stride=(1, 1), padding=(1, 1))
        (3): PReLU(num_parameters=1)
        (4): Conv2d(64, 64, kernel_size=(3, 3), stride=(1, 1), padding=(1, 1))
        (5): PReLU(num_parameters=1)
        (6): Conv2d(64, 64, kernel_size=(3, 3), stride=(1, 1), padding=(1, 1))
        (7): PReLU(num_parameters=1)
        (8): Conv2d(64, 144, kernel_size=(1, 1), stride=(1, 1))
      )
    )
    (guidance_kg): KG(
      (conv_first): Sequential(
        (0): Conv2d(64, 64, kernel_size=(3, 3), stride=(1, 1), padding=(1, 1))
        (1): PReLU(num_parameters=1)
        (2): Conv2d(64, 64, kernel_size=(3, 3), stride=(1, 1), padding=(1, 1))
        (3): PReLU(num_parameters=1)
        (4): Conv2d(64, 64, kernel_size=(3, 3), stride=(1, 1), padding=(1, 1))
        (5): PReLU(num_parameters=1)
        (6): Conv2d(64, 64, kernel_size=(3, 3), stride=(1, 1), padding=(1, 1))
        (7): PReLU(num_parameters=1)
        (8): Conv2d(64, 144, kernel_size=(1, 1), stride=(1, 1))
      )
    )
    (jbf_conv): Sequential(
      (0): Conv2d(64, 64, kernel_size=(3, 3), stride=(1, 1), padding=(1, 1))
      (1): PReLU(num_parameters=1)
      (2): Conv2d(64, 64, kernel_size=(3, 3), stride=(1, 1), padding=(1, 1))
    )
  )
  (pool1): AvgPool2d(kernel_size=2, stride=2, padding=0)
  (conv2): Conv2d(64, 128, kernel_size=(1, 1), stride=(1, 1))
  (Deep_FE2): Deep_FE(
    (fe): Sequential(
      (0): Conv2d(128, 128, kernel_size=(3, 3), stride=(1, 1), padding=(1, 1))
      (1): PReLU(num_parameters=1)
      (2): Conv2d(128, 128, kernel_size=(3, 3), stride=(1, 1), padding=(1, 1))
      (3): PReLU(num_parameters=1)
      (4): Conv2d(128, 128, kernel_size=(3, 3), stride=(1, 1), padding=(1, 1))
      (5): PReLU(num_parameters=1)
      (6): Conv2d(128, 128, kernel_size=(3, 3), stride=(1, 1), padding=(1, 1))
      (7): PReLU(num_parameters=1)
      (8): Conv2d(128, 128, kernel_size=(1, 1), stride=(1, 1))
    )
  )
  (JTF2): JTF(
    (unfold): Unfold(kernel_size=3, dilation=1, padding=1, stride=1)
    (target_kg): KG(
      (conv_first): Sequential(
        (0): Conv2d(128, 128, kernel_size=(3, 3), stride=(1, 1), padding=(1, 1))
        (1): PReLU(num_parameters=1)
        (2): Conv2d(128, 128, kernel_size=(3, 3), stride=(1, 1), padding=(1, 1))
        (3): PReLU(num_parameters=1)
        (4): Conv2d(128, 128, kernel_size=(3, 3), stride=(1, 1), padding=(1, 1))
        (5): PReLU(num_parameters=1)
        (6): Conv2d(128, 128, kernel_size=(3, 3), stride=(1, 1), padding=(1, 1))
        (7): PReLU(num_parameters=1)
        (8): Conv2d(128, 144, kernel_size=(1, 1), stride=(1, 1))
      )
    )
    (guidance_kg): KG(
      (conv_first): Sequential(
        (0): Conv2d(128, 128, kernel_size=(3, 3), stride=(1, 1), padding=(1, 1))
        (1): PReLU(num_parameters=1)
        (2): Conv2d(128, 128, kernel_size=(3, 3), stride=(1, 1), padding=(1, 1))
        (3): PReLU(num_parameters=1)
        (4): Conv2d(128, 128, kernel_size=(3, 3), stride=(1, 1), padding=(1, 1))
        (5): PReLU(num_parameters=1)
        (6): Conv2d(128, 128, kernel_size=(3, 3), stride=(1, 1), padding=(1, 1))
        (7): PReLU(num_parameters=1)
        (8): Conv2d(128, 144, kernel_size=(1, 1), stride=(1, 1))
      )
    )
    (jbf_conv): Sequential(
      (0): Conv2d(128, 128, kernel_size=(3, 3), stride=(1, 1), padding=(1, 1))
      (1): PReLU(num_parameters=1)
      (2): Conv2d(128, 128, kernel_size=(3, 3), stride=(1, 1), padding=(1, 1))
    )
  )
  (JTF21): JTF(
    (unfold): Unfold(kernel_size=3, dilation=1, padding=1, stride=1)
    (target_kg): KG(
      (conv_first): Sequential(
        (0): Conv2d(128, 128, kernel_size=(3, 3), stride=(1, 1), padding=(1, 1))
        (1): PReLU(num_parameters=1)
        (2): Conv2d(128, 128, kernel_size=(3, 3), stride=(1, 1), padding=(1, 1))
        (3): PReLU(num_parameters=1)
        (4): Conv2d(128, 128, kernel_size=(3, 3), stride=(1, 1), padding=(1, 1))
        (5): PReLU(num_parameters=1)
        (6): Conv2d(128, 128, kernel_size=(3, 3), stride=(1, 1), padding=(1, 1))
        (7): PReLU(num_parameters=1)
        (8): Conv2d(128, 144, kernel_size=(1, 1), stride=(1, 1))
      )
    )
    (guidance_kg): KG(
      (conv_first): Sequential(
        (0): Conv2d(128, 128, kernel_size=(3, 3), stride=(1, 1), padding=(1, 1))
        (1): PReLU(num_parameters=1)
        (2): Conv2d(128, 128, kernel_size=(3, 3), stride=(1, 1), padding=(1, 1))
        (3): PReLU(num_parameters=1)
        (4): Conv2d(128, 128, kernel_size=(3, 3), stride=(1, 1), padding=(1, 1))
        (5): PReLU(num_parameters=1)
        (6): Conv2d(128, 128, kernel_size=(3, 3), stride=(1, 1), padding=(1, 1))
        (7): PReLU(num_parameters=1)
        (8): Conv2d(128, 144, kernel_size=(1, 1), stride=(1, 1))
      )
    )
    (jbf_conv): Sequential(
      (0): Conv2d(128, 128, kernel_size=(3, 3), stride=(1, 1), padding=(1, 1))
      (1): PReLU(num_parameters=1)
      (2): Conv2d(128, 128, kernel_size=(3, 3), stride=(1, 1), padding=(1, 1))
    )
  )
  (pool2): AvgPool2d(kernel_size=2, stride=2, padding=0)
  (conv3): Conv2d(128, 256, kernel_size=(1, 1), stride=(1, 1))
  (conv_noise2): Conv2d(128, 64, kernel_size=(1, 1), stride=(1, 1))
  (Deep_FE3): Deep_FE(
    (fe): Sequential(
      (0): Conv2d(256, 256, kernel_size=(3, 3), stride=(1, 1), padding=(1, 1))
      (1): PReLU(num_parameters=1)
      (2): Conv2d(256, 256, kernel_size=(3, 3), stride=(1, 1), padding=(1, 1))
      (3): PReLU(num_parameters=1)
      (4): Conv2d(256, 256, kernel_size=(3, 3), stride=(1, 1), padding=(1, 1))
      (5): PReLU(num_parameters=1)
      (6): Conv2d(256, 256, kernel_size=(3, 3), stride=(1, 1), padding=(1, 1))
      (7): PReLU(num_parameters=1)
      (8): Conv2d(256, 256, kernel_size=(1, 1), stride=(1, 1))
    )
  )
  (JTF3): JTF(
    (unfold): Unfold(kernel_size=3, dilation=1, padding=1, stride=1)
    (target_kg): KG(
      (conv_first): Sequential(
        (0): Conv2d(256, 256, kernel_size=(3, 3), stride=(1, 1), padding=(1, 1))
        (1): PReLU(num_parameters=1)
        (2): Conv2d(256, 256, kernel_size=(3, 3), stride=(1, 1), padding=(1, 1))
        (3): PReLU(num_parameters=1)
        (4): Conv2d(256, 256, kernel_size=(3, 3), stride=(1, 1), padding=(1, 1))
        (5): PReLU(num_parameters=1)
        (6): Conv2d(256, 256, kernel_size=(3, 3), stride=(1, 1), padding=(1, 1))
        (7): PReLU(num_parameters=1)
        (8): Conv2d(256, 144, kernel_size=(1, 1), stride=(1, 1))
      )
    )
    (guidance_kg): KG(
      (conv_first): Sequential(
        (0): Conv2d(256, 256, kernel_size=(3, 3), stride=(1, 1), padding=(1, 1))
        (1): PReLU(num_parameters=1)
        (2): Conv2d(256, 256, kernel_size=(3, 3), stride=(1, 1), padding=(1, 1))
        (3): PReLU(num_parameters=1)
        (4): Conv2d(256, 256, kernel_size=(3, 3), stride=(1, 1), padding=(1, 1))
        (5): PReLU(num_parameters=1)
        (6): Conv2d(256, 256, kernel_size=(3, 3), stride=(1, 1), padding=(1, 1))
        (7): PReLU(num_parameters=1)
        (8): Conv2d(256, 144, kernel_size=(1, 1), stride=(1, 1))
      )
    )
    (jbf_conv): Sequential(
      (0): Conv2d(256, 256, kernel_size=(3, 3), stride=(1, 1), padding=(1, 1))
      (1): PReLU(num_parameters=1)
      (2): Conv2d(256, 256, kernel_size=(3, 3), stride=(1, 1), padding=(1, 1))
    )
  )
  (JTF31): JTF(
    (unfold): Unfold(kernel_size=3, dilation=1, padding=1, stride=1)
    (target_kg): KG(
      (conv_first): Sequential(
        (0): Conv2d(256, 256, kernel_size=(3, 3), stride=(1, 1), padding=(1, 1))
        (1): PReLU(num_parameters=1)
        (2): Conv2d(256, 256, kernel_size=(3, 3), stride=(1, 1), padding=(1, 1))
        (3): PReLU(num_parameters=1)
        (4): Conv2d(256, 256, kernel_size=(3, 3), stride=(1, 1), padding=(1, 1))
        (5): PReLU(num_parameters=1)
        (6): Conv2d(256, 256, kernel_size=(3, 3), stride=(1, 1), padding=(1, 1))
        (7): PReLU(num_parameters=1)
        (8): Conv2d(256, 144, kernel_size=(1, 1), stride=(1, 1))
      )
    )
    (guidance_kg): KG(
      (conv_first): Sequential(
        (0): Conv2d(256, 256, kernel_size=(3, 3), stride=(1, 1), padding=(1, 1))
        (1): PReLU(num_parameters=1)
        (2): Conv2d(256, 256, kernel_size=(3, 3), stride=(1, 1), padding=(1, 1))
        (3): PReLU(num_parameters=1)
        (4): Conv2d(256, 256, kernel_size=(3, 3), stride=(1, 1), padding=(1, 1))
        (5): PReLU(num_parameters=1)
        (6): Conv2d(256, 256, kernel_size=(3, 3), stride=(1, 1), padding=(1, 1))
        (7): PReLU(num_parameters=1)
        (8): Conv2d(256, 144, kernel_size=(1, 1), stride=(1, 1))
      )
    )
    (jbf_conv): Sequential(
      (0): Conv2d(256, 256, kernel_size=(3, 3), stride=(1, 1), padding=(1, 1))
      (1): PReLU(num_parameters=1)
      (2): Conv2d(256, 256, kernel_size=(3, 3), stride=(1, 1), padding=(1, 1))
    )
  )
  (conv_noise3): Conv2d(256, 64, kernel_size=(1, 1), stride=(1, 1))
  (conv_noise4): Conv2d(64, 256, kernel_size=(1, 1), stride=(1, 1))
  (JTF4): JTF(
    (unfold): Unfold(kernel_size=3, dilation=1, padding=1, stride=1)
    (target_kg): KG(
      (conv_first): Sequential(
        (0): Conv2d(256, 256, kernel_size=(3, 3), stride=(1, 1), padding=(1, 1))
        (1): PReLU(num_parameters=1)
        (2): Conv2d(256, 256, kernel_size=(3, 3), stride=(1, 1), padding=(1, 1))
        (3): PReLU(num_parameters=1)
        (4): Conv2d(256, 256, kernel_size=(3, 3), stride=(1, 1), padding=(1, 1))
        (5): PReLU(num_parameters=1)
        (6): Conv2d(256, 256, kernel_size=(3, 3), stride=(1, 1), padding=(1, 1))
        (7): PReLU(num_parameters=1)
        (8): Conv2d(256, 144, kernel_size=(1, 1), stride=(1, 1))
      )
    )
    (guidance_kg): KG(
      (conv_first): Sequential(
        (0): Conv2d(256, 256, kernel_size=(3, 3), stride=(1, 1), padding=(1, 1))
        (1): PReLU(num_parameters=1)
        (2): Conv2d(256, 256, kernel_size=(3, 3), stride=(1, 1), padding=(1, 1))
        (3): PReLU(num_parameters=1)
        (4): Conv2d(256, 256, kernel_size=(3, 3), stride=(1, 1), padding=(1, 1))
        (5): PReLU(num_parameters=1)
        (6): Conv2d(256, 256, kernel_size=(3, 3), stride=(1, 1), padding=(1, 1))
        (7): PReLU(num_parameters=1)
        (8): Conv2d(256, 144, kernel_size=(1, 1), stride=(1, 1))
      )
    )
    (jbf_conv): Sequential(
      (0): Conv2d(256, 256, kernel_size=(3, 3), stride=(1, 1), padding=(1, 1))
      (1): PReLU(num_parameters=1)
      (2): Conv2d(256, 256, kernel_size=(3, 3), stride=(1, 1), padding=(1, 1))
    )
  )
  (JTF41): JTF(
    (unfold): Unfold(kernel_size=3, dilation=1, padding=1, stride=1)
    (target_kg): KG(
      (conv_first): Sequential(
        (0): Conv2d(256, 256, kernel_size=(3, 3), stride=(1, 1), padding=(1, 1))
        (1): PReLU(num_parameters=1)
        (2): Conv2d(256, 256, kernel_size=(3, 3), stride=(1, 1), padding=(1, 1))
        (3): PReLU(num_parameters=1)
        (4): Conv2d(256, 256, kernel_size=(3, 3), stride=(1, 1), padding=(1, 1))
        (5): PReLU(num_parameters=1)
        (6): Conv2d(256, 256, kernel_size=(3, 3), stride=(1, 1), padding=(1, 1))
        (7): PReLU(num_parameters=1)
        (8): Conv2d(256, 144, kernel_size=(1, 1), stride=(1, 1))
      )
    )
    (guidance_kg): KG(
      (conv_first): Sequential(
        (0): Conv2d(256, 256, kernel_size=(3, 3), stride=(1, 1), padding=(1, 1))
        (1): PReLU(num_parameters=1)
        (2): Conv2d(256, 256, kernel_size=(3, 3), stride=(1, 1), padding=(1, 1))
        (3): PReLU(num_parameters=1)
        (4): Conv2d(256, 256, kernel_size=(3, 3), stride=(1, 1), padding=(1, 1))
        (5): PReLU(num_parameters=1)
        (6): Conv2d(256, 256, kernel_size=(3, 3), stride=(1, 1), padding=(1, 1))
        (7): PReLU(num_parameters=1)
        (8): Conv2d(256, 144, kernel_size=(1, 1), stride=(1, 1))
      )
    )
    (jbf_conv): Sequential(
      (0): Conv2d(256, 256, kernel_size=(3, 3), stride=(1, 1), padding=(1, 1))
      (1): PReLU(num_parameters=1)
      (2): Conv2d(256, 256, kernel_size=(3, 3), stride=(1, 1), padding=(1, 1))
    )
  )
  (up1): up(
    (up): ConvTranspose2d(256, 128, kernel_size=(2, 2), stride=(2, 2))
  )
  (JTF5): JTF(
    (unfold): Unfold(kernel_size=3, dilation=1, padding=1, stride=1)
    (target_kg): KG(
      (conv_first): Sequential(
        (0): Conv2d(128, 128, kernel_size=(3, 3), stride=(1, 1), padding=(1, 1))
        (1): PReLU(num_parameters=1)
        (2): Conv2d(128, 128, kernel_size=(3, 3), stride=(1, 1), padding=(1, 1))
        (3): PReLU(num_parameters=1)
        (4): Conv2d(128, 128, kernel_size=(3, 3), stride=(1, 1), padding=(1, 1))
        (5): PReLU(num_parameters=1)
        (6): Conv2d(128, 128, kernel_size=(3, 3), stride=(1, 1), padding=(1, 1))
        (7): PReLU(num_parameters=1)
        (8): Conv2d(128, 144, kernel_size=(1, 1), stride=(1, 1))
      )
    )
    (guidance_kg): KG(
      (conv_first): Sequential(
        (0): Conv2d(128, 128, kernel_size=(3, 3), stride=(1, 1), padding=(1, 1))
        (1): PReLU(num_parameters=1)
        (2): Conv2d(128, 128, kernel_size=(3, 3), stride=(1, 1), padding=(1, 1))
        (3): PReLU(num_parameters=1)
        (4): Conv2d(128, 128, kernel_size=(3, 3), stride=(1, 1), padding=(1, 1))
        (5): PReLU(num_parameters=1)
        (6): Conv2d(128, 128, kernel_size=(3, 3), stride=(1, 1), padding=(1, 1))
        (7): PReLU(num_parameters=1)
        (8): Conv2d(128, 144, kernel_size=(1, 1), stride=(1, 1))
      )
    )
    (jbf_conv): Sequential(
      (0): Conv2d(128, 128, kernel_size=(3, 3), stride=(1, 1), padding=(1, 1))
      (1): PReLU(num_parameters=1)
      (2): Conv2d(128, 128, kernel_size=(3, 3), stride=(1, 1), padding=(1, 1))
    )
  )
  (JTF51): JTF(
    (unfold): Unfold(kernel_size=3, dilation=1, padding=1, stride=1)
    (target_kg): KG(
      (conv_first): Sequential(
        (0): Conv2d(128, 128, kernel_size=(3, 3), stride=(1, 1), padding=(1, 1))
        (1): PReLU(num_parameters=1)
        (2): Conv2d(128, 128, kernel_size=(3, 3), stride=(1, 1), padding=(1, 1))
        (3): PReLU(num_parameters=1)
        (4): Conv2d(128, 128, kernel_size=(3, 3), stride=(1, 1), padding=(1, 1))
        (5): PReLU(num_parameters=1)
        (6): Conv2d(128, 128, kernel_size=(3, 3), stride=(1, 1), padding=(1, 1))
        (7): PReLU(num_parameters=1)
        (8): Conv2d(128, 144, kernel_size=(1, 1), stride=(1, 1))
      )
    )
    (guidance_kg): KG(
      (conv_first): Sequential(
        (0): Conv2d(128, 128, kernel_size=(3, 3), stride=(1, 1), padding=(1, 1))
        (1): PReLU(num_parameters=1)
        (2): Conv2d(128, 128, kernel_size=(3, 3), stride=(1, 1), padding=(1, 1))
        (3): PReLU(num_parameters=1)
        (4): Conv2d(128, 128, kernel_size=(3, 3), stride=(1, 1), padding=(1, 1))
        (5): PReLU(num_parameters=1)
        (6): Conv2d(128, 128, kernel_size=(3, 3), stride=(1, 1), padding=(1, 1))
        (7): PReLU(num_parameters=1)
        (8): Conv2d(128, 144, kernel_size=(1, 1), stride=(1, 1))
      )
    )
    (jbf_conv): Sequential(
      (0): Conv2d(128, 128, kernel_size=(3, 3), stride=(1, 1), padding=(1, 1))
      (1): PReLU(num_parameters=1)
      (2): Conv2d(128, 128, kernel_size=(3, 3), stride=(1, 1), padding=(1, 1))
    )
  )
  (up2): up(
    (up): ConvTranspose2d(128, 64, kernel_size=(2, 2), stride=(2, 2))
  )
  (JTF6): JTF(
    (unfold): Unfold(kernel_size=3, dilation=1, padding=1, stride=1)
    (target_kg): KG(
      (conv_first): Sequential(
        (0): Conv2d(64, 64, kernel_size=(3, 3), stride=(1, 1), padding=(1, 1))
        (1): PReLU(num_parameters=1)
        (2): Conv2d(64, 64, kernel_size=(3, 3), stride=(1, 1), padding=(1, 1))
        (3): PReLU(num_parameters=1)
        (4): Conv2d(64, 64, kernel_size=(3, 3), stride=(1, 1), padding=(1, 1))
        (5): PReLU(num_parameters=1)
        (6): Conv2d(64, 64, kernel_size=(3, 3), stride=(1, 1), padding=(1, 1))
        (7): PReLU(num_parameters=1)
        (8): Conv2d(64, 144, kernel_size=(1, 1), stride=(1, 1))
      )
    )
    (guidance_kg): KG(
      (conv_first): Sequential(
        (0): Conv2d(64, 64, kernel_size=(3, 3), stride=(1, 1), padding=(1, 1))
        (1): PReLU(num_parameters=1)
        (2): Conv2d(64, 64, kernel_size=(3, 3), stride=(1, 1), padding=(1, 1))
        (3): PReLU(num_parameters=1)
        (4): Conv2d(64, 64, kernel_size=(3, 3), stride=(1, 1), padding=(1, 1))
        (5): PReLU(num_parameters=1)
        (6): Conv2d(64, 64, kernel_size=(3, 3), stride=(1, 1), padding=(1, 1))
        (7): PReLU(num_parameters=1)
        (8): Conv2d(64, 144, kernel_size=(1, 1), stride=(1, 1))
      )
    )
    (jbf_conv): Sequential(
      (0): Conv2d(64, 64, kernel_size=(3, 3), stride=(1, 1), padding=(1, 1))
      (1): PReLU(num_parameters=1)
      (2): Conv2d(64, 64, kernel_size=(3, 3), stride=(1, 1), padding=(1, 1))
    )
  )
  (JTF61): JTF(
    (unfold): Unfold(kernel_size=3, dilation=1, padding=1, stride=1)
    (target_kg): KG(
      (conv_first): Sequential(
        (0): Conv2d(64, 64, kernel_size=(3, 3), stride=(1, 1), padding=(1, 1))
        (1): PReLU(num_parameters=1)
        (2): Conv2d(64, 64, kernel_size=(3, 3), stride=(1, 1), padding=(1, 1))
        (3): PReLU(num_parameters=1)
        (4): Conv2d(64, 64, kernel_size=(3, 3), stride=(1, 1), padding=(1, 1))
        (5): PReLU(num_parameters=1)
        (6): Conv2d(64, 64, kernel_size=(3, 3), stride=(1, 1), padding=(1, 1))
        (7): PReLU(num_parameters=1)
        (8): Conv2d(64, 144, kernel_size=(1, 1), stride=(1, 1))
      )
    )
    (guidance_kg): KG(
      (conv_first): Sequential(
        (0): Conv2d(64, 64, kernel_size=(3, 3), stride=(1, 1), padding=(1, 1))
        (1): PReLU(num_parameters=1)
        (2): Conv2d(64, 64, kernel_size=(3, 3), stride=(1, 1), padding=(1, 1))
        (3): PReLU(num_parameters=1)
        (4): Conv2d(64, 64, kernel_size=(3, 3), stride=(1, 1), padding=(1, 1))
        (5): PReLU(num_parameters=1)
        (6): Conv2d(64, 64, kernel_size=(3, 3), stride=(1, 1), padding=(1, 1))
        (7): PReLU(num_parameters=1)
        (8): Conv2d(64, 144, kernel_size=(1, 1), stride=(1, 1))
      )
    )
    (jbf_conv): Sequential(
      (0): Conv2d(64, 64, kernel_size=(3, 3), stride=(1, 1), padding=(1, 1))
      (1): PReLU(num_parameters=1)
      (2): Conv2d(64, 64, kernel_size=(3, 3), stride=(1, 1), padding=(1, 1))
    )
  )
)

25-05-12 15:02:06.502 : 
 |  mean  |  min   |  max   |  std   || shape               
 |  0.001 | -0.061 |  0.096 |  0.031 | torch.Size([3, 64, 1, 1]) || endconv.conv.weight
 | -0.002 | -0.003 | -0.001 |  0.001 | torch.Size([3]) || endconv.conv.bias
 |  0.000 | -0.219 |  0.152 |  0.040 | torch.Size([64, 3, 3, 3]) || FE1.fe.0.weight
…
    G_optimizer_lr: 0.0001
    G_optimizer_clipgrad: None
    G_scheduler_type: MultiStepLR
    G_scheduler_milestones: [60000, 90000, 120000, 240000, 24000000]
    G_scheduler_gamma: 0.5
    G_regularizer_orthstep: None
    G_regularizer_clipstep: None
    checkpoint_test: 10000
    checkpoint_save: 10000
    checkpoint_print: 10000
  ]
  opt_path: options/train_drnet.json
  is_train: True

25-05-14 15:09:46.963 : Random seed: 6995
25-05-14 15:09:47.396 : Number of train images: 31,005, iters: 31,005
25-05-14 15:09:49.504 : 
Networks name: DRNet
Params number: 3016467
Net structure:
DRNet(
  (conv_first): Conv2d(3, 96, kernel_size=(3, 3), stride=(1, 1), padding=(1, 1))
  (patch_embed): PatchEmbed(
    (norm): LayerNorm((96,), eps=1e-05, elementwise_affine=True)
  )
  (patch_unembed): PatchUnEmbed()
  (pos_drop): Dropout(p=0.0, inplace=False)
  (layers): ModuleList(
    (0): PSA_Group(
      (residual_group): BasicLayer(
        dim=96, input_resolution=(256, 256), depth=6
        (blocks): ModuleList(
          (0): PSA_Block(
            dim=96, input_resolution=(256, 256), num_heads=6, window_size=8, shift_size=0, mlp_ratio=4.0
            (norm1): LayerNorm((96,), eps=1e-05, elementwise_affine=True)
            (attn): PSA(
              dim=96, window_size=(4, 4), num_heads=6
              (kv): Linear(in_features=96, out_features=48, bias=True)
              (q): Linear(in_features=96, out_features=96, bias=True)
              (attn_drop): Dropout(p=0.0, inplace=False)
              (proj): Linear(in_features=96, out_features=96, bias=True)
              (proj_drop): Dropout(p=0.0, inplace=False)
              (softmax): Softmax(dim=-1)
            )
            (drop_path): Identity()
            (norm2): LayerNorm((96,), eps=1e-05, elementwise_affine=True)
            (mlp): ConvFFN(
              (fc1): Linear(in_features=96, out_features=384, bias=True)
              (act): GELU(approximate='none')
              (before_add): emptyModule()
              (after_add): emptyModule()
              (dwconv): dwconv(
                (depthwise_conv): Sequential(
                  (0): Conv2d(384, 384, kernel_size=(5, 5), stride=(1, 1), padding=(2, 2), groups=384)
                  (1): GELU(approximate='none')
                )
              )
              (fc2): Linear(in_features=384, out_features=96, bias=True)
              (drop): Dropout(p=0.0, inplace=False)
            )
            (after_norm1): emptyModule()
            (after_attention): emptyModule()
            (residual_after_attention): emptyModule()
            (after_norm2): emptyModule()
            (after_mlp): emptyModule()
            (residual_after_mlp): emptyModule()
          )
          (1): PSA_Block(
            dim=96, input_resolution=(256, 256), num_heads=6, window_size=8, shift_size=4, mlp_ratio=4.0
            (norm1): LayerNorm((96,), eps=1e-05, elementwise_affine=True)
            (attn): PSA(
              dim=96, window_size=(4, 4), num_heads=6
              (kv): Linear(in_features=96, out_features=48, bias=True)
              (q): Linear(in_features=96, out_features=96, bias=True)
              (attn_drop): Dropout(p=0.0, inplace=False)
              (proj): Linear(in_features=96, out_features=96, bias=True)
              (proj_drop): Dropout(p=0.0, inplace=False)
              (softmax): Softmax(dim=-1)
            )
            (drop_path): DropPath()
            (norm2): LayerNorm((96,), eps=1e-05, elementwise_affine=True)
            (mlp): ConvFFN(
              (fc1): Linear(in_features=96, out_features=384, bias=True)
              (act): GELU(approximate='none')
              (before_add): emptyModule()
              (after_add): emptyModule()
              (dwconv): dwconv(
                (depthwise_conv): Sequential(
                  (0): Conv2d(384, 384, kernel_size=(5, 5), stride=(1, 1), padding=(2, 2), groups=384)
                  (1): GELU(approximate='none')
                )
              )
              (fc2): Linear(in_features=384, out_features=96, bias=True)
              (drop): Dropout(p=0.0, inplace=False)
            )
            (after_norm1): emptyModule()
            (after_attention): emptyModule()
            (residual_after_attention): emptyModule()
            (after_norm2): emptyModule()
            (after_mlp): emptyModule()
            (residual_after_mlp): emptyModule()
          )
          (2): PSA_Block(
            dim=96, input_resolution=(256, 256), num_heads=6, window_size=8, shift_size=0, mlp_ratio=4.0
            (norm1): LayerNorm((96,), eps=1e-05, elementwise_affine=True)
            (attn): PSA(
              dim=96, window_size=(4, 4), num_heads=6
              (kv): Linear(in_features=96, out_features=48, bias=True)
              (q): Linear(in_features=96, out_features=96, bias=True)
              (attn_drop): Dropout(p=0.0, inplace=False)
              (proj): Linear(in_features=96, out_features=96, bias=True)
              (proj_drop): Dropout(p=0.0, inplace=False)
              (softmax): Softmax(dim=-1)
            )
            (drop_path): DropPath()
            (norm2): LayerNorm((96,), eps=1e-05, elementwise_affine=True)
            (mlp): ConvFFN(
              (fc1): Linear(in_features=96, out_features=384, bias=True)
              (act): GELU(approximate='none')
              (before_add): emptyModule()
              (after_add): emptyModule()
              (dwconv): dwconv(
                (depthwise_conv): Sequential(
                  (0): Conv2d(384, 384, kernel_size=(5, 5), stride=(1, 1), padding=(2, 2), groups=384)
                  (1): GELU(approximate='none')
                )
              )
              (fc2): Linear(in_features=384, out_features=96, bias=True)
              (drop): Dropout(p=0.0, inplace=False)
            )
            (after_norm1): emptyModule()
            (after_attention): emptyModule()
            (residual_after_attention): emptyModule()
            (after_norm2): emptyModule()
            (after_mlp): emptyModule()
            (residual_after_mlp): emptyModule()
          )
          (3): PSA_Block(
            dim=96, input_resolution=(256, 256), num_heads=6, window_size=8, shift_size=4, mlp_ratio=4.0
            (norm1): LayerNorm((96,), eps=1e-05, elementwise_affine=True)
            (attn): PSA(
              dim=96, window_size=(4, 4), num_heads=6
              (kv): Linear(in_features=96, out_features=48, bias=True)
              (q): Linear(in_features=96, out_features=96, bias=True)
              (attn_drop): Dropout(p=0.0, inplace=False)
              (proj): Linear(in_features=96, out_features=96, bias=True)
              (proj_drop): Dropout(p=0.0, inplace=False)
              (softmax): Softmax(dim=-1)
            )
            (drop_path): DropPath()
            (norm2): LayerNorm((96,), eps=1e-05, elementwise_affine=True)
            (mlp): ConvFFN(
              (fc1): Linear(in_features=96, out_features=384, bias=True)
              (act): GELU(approximate='none')
              (before_add): emptyModule()
              (after_add): emptyModule()
              (dwconv): dwconv(
                (depthwise_conv): Sequential(
                  (0): Conv2d(384, 384, kernel_size=(5, 5), stride=(1, 1), padding=(2, 2), groups=384)
                  (1): GELU(approximate='none')
                )
              )
              (fc2): Linear(in_features=384, out_features=96, bias=True)
              (drop): Dropout(p=0.0, inplace=False)
            )
            (after_norm1): emptyModule()
            (after_attention): emptyModule()
            (residual_after_attention): emptyModule()
            (after_norm2): emptyModule()
            (after_mlp): emptyModule()
            (residual_after_mlp): emptyModule()
          )
          (4): PSA_Block(
            dim=96, input_resolution=(256, 256), num_heads=6, window_size=8, shift_size=0, mlp_ratio=4.0
            (norm1): LayerNorm((96,), eps=1e-05, elementwise_affine=True)
            (attn): PSA(
              dim=96, window_size=(4, 4), num_heads=6
              (kv): Linear(in_features=96, out_features=48, bias=True)
              (q): Linear(in_features=96, out_features=96, bias=True)
              (attn_drop): Dropout(p=0.0, inplace=False)
              (proj): Linear(in_features=96, out_features=96, bias=True)
              (proj_drop): Dropout(p=0.0, inplace=False)
              (softmax): Softmax(dim=-1)
            )
            (drop_path): DropPath()
            (norm2): LayerNorm((96,), eps=1e-05, elementwise_affine=True)
            (mlp): ConvFFN(
              (fc1): Linear(in_features=96, out_features=384, bias=True)
              (act): GELU(approximate='none')
              (before_add): emptyModule()
              (after_add): emptyModule()
              (dwconv): dwconv(
                (depthwise_conv): Sequential(
                  (0): Conv2d(384, 384, kernel_size=(5, 5), stride=(1, 1), padding=(2, 2), groups=384)
                  (1): GELU(approximate='none')
                )
              )
              (fc2): Linear(in_features=384, out_features=96, bias=True)
              (drop): Dropout(p=0.0, inplace=False)
            )
            (after_norm1): emptyModule()
            (after_attention): emptyModule()
            (residual_after_attention): emptyModule()
            (after_norm2): emptyModule()
            (after_mlp): emptyModule()
            (residual_after_mlp): emptyModule()
          )
          (5): PSA_Block(
            dim=96, input_resolution=(256, 256), num_heads=6, window_size=8, shift_size=4, mlp_ratio=4.0
            (norm1): LayerNorm((96,), eps=1e-05, elementwise_affine=True)
            (attn): PSA(
              dim=96, window_size=(4, 4), num_heads=6
              (kv): Linear(in_features=96, out_features=48, bias=True)
              (q): Linear(in_features=96, out_features=96, bias=True)
              (attn_drop): Dropout(p=0.0, inplace=False)
              (proj): Linear(in_features=96, out_features=96, bias=True)
              (proj_drop): Dropout(p=0.0, inplace=False)
              (softmax): Softmax(dim=-1)
            )
            (drop_path): DropPath()
            (norm2): LayerNorm((96,), eps=1e-05, elementwise_affine=True)
            (mlp): ConvFFN(
              (fc1): Linear(in_features=96, out_features=384, bias=True)
              (act): GELU(approximate='none')
              (before_add): emptyModule()
              (after_add): emptyModule()
              (dwconv): dwconv(
                (depthwise_conv): Sequential(
                  (0): Conv2d(384, 384, kernel_size=(5, 5), stride=(1, 1), padding=(2, 2), groups=384)
                  (1): GELU(approximate='none')
                )
              )
              (fc2): Linear(in_features=384, out_features=96, bias=True)
              (drop): Dropout(p=0.0, inplace=False)
            )
            (after_norm1): emptyModule()
            (after_attention): emptyModule()
            (residual_after_attention): emptyModule()
            (after_norm2): emptyModule()
            (after_mlp): emptyModule()
            (residual_after_mlp): emptyModule()
          )
        )
      )
      (conv): Conv2d(96, 96, kernel_size=(3, 3), stride=(1, 1), padding=(1, 1))
      (patch_embed): PatchEmbed()
      (patch_unembed): PatchUnEmbed()
      (before_PSA_Group_conv): emptyModule()
      (after_PSA_Group_conv): emptyModule()
      (after_PSA_Group_Residual): emptyModule()
    )
    (1-3): 3 x PSA_Group(
      (residual_group): BasicLayer(
        dim=96, input_resolution=(256, 256), depth=6
        (blocks): ModuleList(
          (0): PSA_Block(
            dim=96, input_resolution=(256, 256), num_heads=6, window_size=8, shift_size=0, mlp_ratio=4.0
            (norm1): LayerNorm((96,), eps=1e-05, elementwise_affine=True)
            (attn): PSA(
              dim=96, window_size=(4, 4), num_heads=6
              (kv): Linear(in_features=96, out_features=48, bias=True)
              (q): Linear(in_features=96, out_features=96, bias=True)
              (attn_drop): Dropout(p=0.0, inplace=False)
              (proj): Linear(in_features=96, out_features=96, bias=True)
              (proj_drop): Dropout(p=0.0, inplace=False)
              (softmax): Softmax(dim=-1)
            )
            (drop_path): DropPath()
            (norm2): LayerNorm((96,), eps=1e-05, elementwise_affine=True)
            (mlp): ConvFFN(
              (fc1): Linear(in_features=96, out_features=384, bias=True)
              (act): GELU(approximate='none')
              (before_add): emptyModule()
              (after_add): emptyModule()
              (dwconv): dwconv(
                (depthwise_conv): Sequential(
                  (0): Conv2d(384, 384, kernel_size=(5, 5), stride=(1, 1), padding=(2, 2), groups=384)
                  (1): GELU(approximate='none')
                )
              )
              (fc2): Linear(in_features=384, out_features=96, bias=True)
              (drop): Dropout(p=0.0, inplace=False)
            )
            (after_norm1): emptyModule()
            (after_attention): emptyModule()
            (residual_after_attention): emptyModule()
            (after_norm2): emptyModule()
            (after_mlp): emptyModule()
            (residual_after_mlp): emptyModule()
          )
          (1): PSA_Block(
            dim=96, input_resolution=(256, 256), num_heads=6, window_size=8, shift_size=4, mlp_ratio=4.0
            (norm1): LayerNorm((96,), eps=1e-05, elementwise_affine=True)
            (attn): PSA(
              dim=96, window_size=(4, 4), num_heads=6
              (kv): Linear(in_features=96, out_features=48, bias=True)
              (q): Linear(in_features=96, out_features=96, bias=True)
              (attn_drop): Dropout(p=0.0, inplace=False)
              (proj): Linear(in_features=96, out_features=96, bias=True)
              (proj_drop): Dropout(p=0.0, inplace=False)
              (softmax): Softmax(dim=-1)
            )
            (drop_path): DropPath()
            (norm2): LayerNorm((96,), eps=1e-05, elementwise_affine=True)
            (mlp): ConvFFN(
              (fc1): Linear(in_features=96, out_features=384, bias=True)
              (act): GELU(approximate='none')
              (before_add): emptyModule()
              (after_add): emptyModule()
              (dwconv): dwconv(
                (depthwise_conv): Sequential(
                  (0): Conv2d(384, 384, kernel_size=(5, 5), stride=(1, 1), padding=(2, 2), groups=384)
                  (1): GELU(approximate='none')
                )
              )
              (fc2): Linear(in_features=384, out_features=96, bias=True)
              (drop): Dropout(p=0.0, inplace=False)
            )
            (after_norm1): emptyModule()
            (after_attention): emptyModule()
            (residual_after_attention): emptyModule()
            (after_norm2): emptyModule()
            (after_mlp): emptyModule()
            (residual_after_mlp): emptyModule()
          )
          (2): PSA_Block(
            dim=96, input_resolution=(256, 256), num_heads=6, window_size=8, shift_size=0, mlp_ratio=4.0
            (norm1): LayerNorm((96,), eps=1e-05, elementwise_affine=True)
            (attn): PSA(
              dim=96, window_size=(4, 4), num_heads=6
              (kv): Linear(in_features=96, out_features=48, bias=True)
              (q): Linear(in_features=96, out_features=96, bias=True)
              (attn_drop): Dropout(p=0.0, inplace=False)
              (proj): Linear(in_features=96, out_features=96, bias=True)
              (proj_drop): Dropout(p=0.0, inplace=False)
              (softmax): Softmax(dim=-1)
            )
            (drop_path): DropPath()
            (norm2): LayerNorm((96,), eps=1e-05, elementwise_affine=True)
            (mlp): ConvFFN(
              (fc1): Linear(in_features=96, out_features=384, bias=True)
              (act): GELU(approximate='none')
              (before_add): emptyModule()
              (after_add): emptyModule()
              (dwconv): dwconv(
                (depthwise_conv): Sequential(
                  (0): Conv2d(384, 384, kernel_size=(5, 5), stride=(1, 1), padding=(2, 2), groups=384)
                  (1): GELU(approximate='none')
                )
              )
              (fc2): Linear(in_features=384, out_features=96, bias=True)
              (drop): Dropout(p=0.0, inplace=False)
            )
            (after_norm1): emptyModule()
            (after_attention): emptyModule()
            (residual_after_attention): emptyModule()
            (after_norm2): emptyModule()
            (after_mlp): emptyModule()
            (residual_after_mlp): emptyModule()
          )
          (3): PSA_Block(
            dim=96, input_resolution=(256, 256), num_heads=6, window_size=8, shift_size=4, mlp_ratio=4.0
            (norm1): LayerNorm((96,), eps=1e-05, elementwise_affine=True)
            (attn): PSA(
              dim=96, window_size=(4, 4), num_heads=6
              (kv): Linear(in_features=96, out_features=48, bias=True)
              (q): Linear(in_features=96, out_features=96, bias=True)
              (attn_drop): Dropout(p=0.0, inplace=False)
              (proj): Linear(in_features=96, out_features=96, bias=True)
              (proj_drop): Dropout(p=0.0, inplace=False)
              (softmax): Softmax(dim=-1)
            )
            (drop_path): DropPath()
            (norm2): LayerNorm((96,), eps=1e-05, elementwise_affine=True)
            (mlp): ConvFFN(
              (fc1): Linear(in_features=96, out_features=384, bias=True)
              (act): GELU(approximate='none')
              (before_add): emptyModule()
              (after_add): emptyModule()
              (dwconv): dwconv(
                (depthwise_conv): Sequential(
                  (0): Conv2d(384, 384, kernel_size=(5, 5), stride=(1, 1), padding=(2, 2), groups=384)
                  (1): GELU(approximate='none')
                )
              )
              (fc2): Linear(in_features=384, out_features=96, bias=True)
              (drop): Dropout(p=0.0, inplace=False)
            )
            (after_norm1): emptyModule()
            (after_attention): emptyModule()
            (residual_after_attention): emptyModule()
            (after_norm2): emptyModule()
            (after_mlp): emptyModule()
            (residual_after_mlp): emptyModule()
          )
          (4): PSA_Block(
            dim=96, input_resolution=(256, 256), num_heads=6, window_size=8, shift_size=0, mlp_ratio=4.0
            (norm1): LayerNorm((96,), eps=1e-05, elementwise_affine=True)
            (attn): PSA(
              dim=96, window_size=(4, 4), num_heads=6
              (kv): Linear(in_features=96, out_features=48, bias=True)
              (q): Linear(in_features=96, out_features=96, bias=True)
              (attn_drop): Dropout(p=0.0, inplace=False)
              (proj): Linear(in_features=96, out_features=96, bias=True)
              (proj_drop): Dropout(p=0.0, inplace=False)
              (softmax): Softmax(dim=-1)
            )
            (drop_path): DropPath()
            (norm2): LayerNorm((96,), eps=1e-05, elementwise_affine=True)
            (mlp): ConvFFN(
              (fc1): Linear(in_features=96, out_features=384, bias=True)
              (act): GELU(approximate='none')
              (before_add): emptyModule()
              (after_add): emptyModule()
              (dwconv): dwconv(
                (depthwise_conv): Sequential(
                  (0): Conv2d(384, 384, kernel_size=(5, 5), stride=(1, 1), padding=(2, 2), groups=384)
                  (1): GELU(approximate='none')
                )
              )
              (fc2): Linear(in_features=384, out_features=96, bias=True)
              (drop): Dropout(p=0.0, inplace=False)
            )
            (after_norm1): emptyModule()
            (after_attention): emptyModule()
            (residual_after_attention): emptyModule()
            (after_norm2): emptyModule()
            (after_mlp): emptyModule()
            (residual_after_mlp): emptyModule()
          )
          (5): PSA_Block(
            dim=96, input_resolution=(256, 256), num_heads=6, window_size=8, shift_size=4, mlp_ratio=4.0
            (norm1): LayerNorm((96,), eps=1e-05, elementwise_affine=True)
            (attn): PSA(
              dim=96, window_size=(4, 4), num_heads=6
              (kv): Linear(in_features=96, out_features=48, bias=True)
              (q): Linear(in_features=96, out_features=96, bias=True)
              (attn_drop): Dropout(p=0.0, inplace=False)
              (proj): Linear(in_features=96, out_features=96, bias=True)
              (proj_drop): Dropout(p=0.0, inplace=False)
              (softmax): Softmax(dim=-1)
            )
            (drop_path): DropPath()
            (norm2): LayerNorm((96,), eps=1e-05, elementwise_affine=True)
            (mlp): ConvFFN(
              (fc1): Linear(in_features=96, out_features=384, bias=True)
              (act): GELU(approximate='none')
              (before_add): emptyModule()
              (after_add): emptyModule()
              (dwconv): dwconv(
                (depthwise_conv): Sequential(
                  (0): Conv2d(384, 384, kernel_size=(5, 5), stride=(1, 1), padding=(2, 2), groups=384)
                  (1): GELU(approximate='none')
                )
              )
              (fc2): Linear(in_features=384, out_features=96, bias=True)
              (drop): Dropout(p=0.0, inplace=False)
            )
            (after_norm1): emptyModule()
            (after_attention): emptyModule()
            (residual_after_attention): emptyModule()
            (after_norm2): emptyModule()
            (after_mlp): emptyModule()
            (residual_after_mlp): emptyModule()
          )
        )
      )
      (conv): Conv2d(96, 96, kernel_size=(3, 3), stride=(1, 1), padding=(1, 1))
      (patch_embed): PatchEmbed()
      (patch_unembed): PatchUnEmbed()
      (before_PSA_Group_conv): emptyModule()
      (after_PSA_Group_conv): emptyModule()
      (after_PSA_Group_Residual): emptyModule()
    )
  )
  (norm): LayerNorm((96,), eps=1e-05, elementwise_affine=True)
  (conv_after_body): Conv2d(96, 96, kernel_size=(3, 3), stride=(1, 1), padding=(1, 1))
  (conv_last): Conv2d(96, 3, kernel_size=(3, 3), stride=(1, 1), padding=(1, 1))
)

25-05-14 15:09:52.848 : 
 |  mean  |  min   |  max   |  std   || shape               
 | -0.001 | -0.192 |  0.192 |  0.111 | torch.Size([96, 3, 3, 3]) || conv_first.weight
 |  0.007 | -0.191 |  0.189 |  0.105 | torch.Size([96]) || conv_first.bias
 |  1.000 |  1.000 |  1.000 |  0.000 | torch.Size([96]) || patch_embed.norm.weight
 |  0.000 |  0.000 |  0.000 |  0.000 | torch.Size([96]) || patch_embed.norm.bias
…
    G_optimizer_lr: 2e-05
    G_optimizer_clipgrad: None
    G_scheduler_type: MultiStepLR
    G_scheduler_milestones: [60000, 90000, 120000, 240000, 24000000]
    G_scheduler_gamma: 0.5
    G_regularizer_orthstep: None
    G_regularizer_clipstep: None
    checkpoint_test: 5000
    checkpoint_save: 5000
    checkpoint_print: 5000
  ]
  opt_path: options/train_drnet.json
  is_train: True

25-05-14 18:45:31.380 : Random seed: 3666
25-05-14 18:45:31.400 : Number of train images: 385, iters: 385
25-05-14 18:45:33.080 : 
Networks name: DRNet
Params number: 18333721
Net structure:
DRNet(
  (m_head): Sequential(
    (0): Conv2d(3, 96, kernel_size=(3, 3), stride=(1, 1), padding=(1, 1), bias=False)
  )
  (m_down1): Sequential(
    (0): ResBlock_CD2C(
      (trans_block): Block(
        (ln1): LayerNorm((32,), eps=1e-05, elementwise_affine=True)
        (msa): WMSA(
          (embedding_layer1): Conv2d(32, 96, kernel_size=(1, 1), stride=(1, 1))
          (linear1): Conv2d(32, 32, kernel_size=(1, 1), stride=(1, 1))
        )
        (drop_path): Identity()
        (ln2): LayerNorm((32,), eps=1e-05, elementwise_affine=True)
        (mlp): Sequential(
          (0): Linear(in_features=32, out_features=128, bias=True)
          (1): GELU(approximate='none')
          (2): Linear(in_features=128, out_features=32, bias=True)
        )
      )
      (conv1_1): Conv2d(96, 96, kernel_size=(1, 1), stride=(1, 1))
      (conv3d): Conv3d(1, 1, kernel_size=(1, 1, 3), stride=(1, 1, 1), padding=(0, 0, 1))
      (conv_block): Sequential(
        (0): Conv2d(32, 32, kernel_size=(3, 3), stride=(1, 1), padding=(1, 1), bias=False)
        (1): ReLU(inplace=True)
        (2): Conv2d(32, 32, kernel_size=(3, 3), stride=(1, 1), padding=(1, 1), bias=False)
      )
      (mamba_layers): ModuleList(
        (0-3): 4 x Block(
          (mixer): Mamba(
            (in_proj): Linear(in_features=32, out_features=128, bias=False)
            (conv1d): Conv1d(64, 64, kernel_size=(4,), stride=(1,), padding=(3,), groups=64)
            (act): SiLU()
            (x_proj): Linear(in_features=64, out_features=34, bias=False)
            (dt_proj): Linear(in_features=2, out_features=64, bias=True)
            (out_proj): Linear(in_features=64, out_features=32, bias=False)
          )
          (norm): LayerNorm((32,), eps=1e-05, elementwise_affine=True)
          (drop_path): Identity()
        )
      )
      (pcbam_module): MCALayer(
        (h_cw): MCAGate(
          (pools): ModuleList(
            (0): AdaptiveAvgPool2d(output_size=1)
            (1): StdPool()
          )
          (conv): Conv2d(1, 1, kernel_size=(1, 3), stride=(1, 1), padding=(0, 1), bias=False)
          (sigmoid): Sigmoid()
        )
        (w_hc): MCAGate(
          (pools): ModuleList(
            (0): AdaptiveAvgPool2d(output_size=1)
            (1): StdPool()
          )
          (conv): Conv2d(1, 1, kernel_size=(1, 3), stride=(1, 1), padding=(0, 1), bias=False)
          (sigmoid): Sigmoid()
        )
        (c_hw): MCAGate(
          (pools): ModuleList(
            (0): AdaptiveAvgPool2d(output_size=1)
            (1): StdPool()
          )
          (conv): Conv2d(1, 1, kernel_size=(1, 3), stride=(1, 1), padding=(0, 1), bias=False)
          (sigmoid): Sigmoid()
        )
      )
    )
    (1): ResBlock_CD2C(
      (trans_block): Block(
        (ln1): LayerNorm((32,), eps=1e-05, elementwise_affine=True)
        (msa): WMSA(
          (embedding_layer1): Conv2d(32, 96, kernel_size=(1, 1), stride=(1, 1))
          (linear1): Conv2d(32, 32, kernel_size=(1, 1), stride=(1, 1))
        )
        (drop_path): Identity()
        (ln2): LayerNorm((32,), eps=1e-05, elementwise_affine=True)
        (mlp): Sequential(
          (0): Linear(in_features=32, out_features=128, bias=True)
          (1): GELU(approximate='none')
          (2): Linear(in_features=128, out_features=32, bias=True)
        )
      )
      (conv1_1): Conv2d(96, 96, kernel_size=(1, 1), stride=(1, 1))
      (conv3d): Conv3d(1, 1, kernel_size=(1, 1, 3), stride=(1, 1, 1), padding=(0, 0, 1))
      (conv_block): Sequential(
        (0): Conv2d(32, 32, kernel_size=(3, 3), stride=(1, 1), padding=(1, 1), bias=False)
        (1): ReLU(inplace=True)
        (2): Conv2d(32, 32, kernel_size=(3, 3), stride=(1, 1), padding=(1, 1), bias=False)
      )
      (mamba_layers): ModuleList(
        (0-3): 4 x Block(
          (mixer): Mamba(
            (in_proj): Linear(in_features=32, out_features=128, bias=False)
            (conv1d): Conv1d(64, 64, kernel_size=(4,), stride=(1,), padding=(3,), groups=64)
            (act): SiLU()
            (x_proj): Linear(in_features=64, out_features=34, bias=False)
            (dt_proj): Linear(in_features=2, out_features=64, bias=True)
            (out_proj): Linear(in_features=64, out_features=32, bias=False)
          )
          (norm): LayerNorm((32,), eps=1e-05, elementwise_affine=True)
          (drop_path): Identity()
        )
      )
      (pcbam_module): MCALayer(
        (h_cw): MCAGate(
          (pools): ModuleList(
            (0): AdaptiveAvgPool2d(output_size=1)
            (1): StdPool()
          )
          (conv): Conv2d(1, 1, kernel_size=(1, 3), stride=(1, 1), padding=(0, 1), bias=False)
          (sigmoid): Sigmoid()
        )
        (w_hc): MCAGate(
          (pools): ModuleList(
            (0): AdaptiveAvgPool2d(output_size=1)
            (1): StdPool()
          )
          (conv): Conv2d(1, 1, kernel_size=(1, 3), stride=(1, 1), padding=(0, 1), bias=False)
          (sigmoid): Sigmoid()
        )
        (c_hw): MCAGate(
          (pools): ModuleList(
            (0): AdaptiveAvgPool2d(output_size=1)
            (1): StdPool()
          )
          (conv): Conv2d(1, 1, kernel_size=(1, 3), stride=(1, 1), padding=(0, 1), bias=False)
          (sigmoid): Sigmoid()
        )
      )
    )
    (2): Conv2d(96, 192, kernel_size=(2, 2), stride=(2, 2), bias=False)
  )
  (m_down2): Sequential(
    (0): ResBlock_CD2C(
      (trans_block): Block(
        (ln1): LayerNorm((64,), eps=1e-05, elementwise_affine=True)
        (msa): WMSA(
          (embedding_layer1): Conv2d(64, 192, kernel_size=(1, 1), stride=(1, 1))
          (linear1): Conv2d(64, 64, kernel_size=(1, 1), stride=(1, 1))
        )
        (drop_path): Identity()
        (ln2): LayerNorm((64,), eps=1e-05, elementwise_affine=True)
        (mlp): Sequential(
          (0): Linear(in_features=64, out_features=256, bias=True)
          (1): GELU(approximate='none')
          (2): Linear(in_features=256, out_features=64, bias=True)
        )
      )
      (conv1_1): Conv2d(192, 192, kernel_size=(1, 1), stride=(1, 1))
      (conv3d): Conv3d(1, 1, kernel_size=(1, 1, 3), stride=(1, 1, 1), padding=(0, 0, 1))
      (conv_block): Sequential(
        (0): Conv2d(64, 64, kernel_size=(3, 3), stride=(1, 1), padding=(1, 1), bias=False)
        (1): ReLU(inplace=True)
        (2): Conv2d(64, 64, kernel_size=(3, 3), stride=(1, 1), padding=(1, 1), bias=False)
      )
      (mamba_layers): ModuleList(
        (0-3): 4 x Block(
          (mixer): Mamba(
            (in_proj): Linear(in_features=64, out_features=256, bias=False)
            (conv1d): Conv1d(128, 128, kernel_size=(4,), stride=(1,), padding=(3,), groups=128)
            (act): SiLU()
            (x_proj): Linear(in_features=128, out_features=36, bias=False)
            (dt_proj): Linear(in_features=4, out_features=128, bias=True)
            (out_proj): Linear(in_features=128, out_features=64, bias=False)
          )
          (norm): LayerNorm((64,), eps=1e-05, elementwise_affine=True)
          (drop_path): Identity()
        )
      )
      (pcbam_module): MCALayer(
        (h_cw): MCAGate(
          (pools): ModuleList(
            (0): AdaptiveAvgPool2d(output_size=1)
            (1): StdPool()
          )
          (conv): Conv2d(1, 1, kernel_size=(1, 3), stride=(1, 1), padding=(0, 1), bias=False)
          (sigmoid): Sigmoid()
        )
        (w_hc): MCAGate(
          (pools): ModuleList(
            (0): AdaptiveAvgPool2d(output_size=1)
            (1): StdPool()
          )
          (conv): Conv2d(1, 1, kernel_size=(1, 3), stride=(1, 1), padding=(0, 1), bias=False)
          (sigmoid): Sigmoid()
        )
        (c_hw): MCAGate(
          (pools): ModuleList(
            (0): AdaptiveAvgPool2d(output_size=1)
            (1): StdPool()
          )
          (conv): Conv2d(1, 1, kernel_size=(1, 3), stride=(1, 1), padding=(0, 1), bias=False)
          (sigmoid): Sigmoid()
        )
      )
    )
    (1): ResBlock_CD2C(
      (trans_block): Block(
        (ln1): LayerNorm((64,), eps=1e-05, elementwise_affine=True)
        (msa): WMSA(
          (embedding_layer1): Conv2d(64, 192, kernel_size=(1, 1), stride=(1, 1))
          (linear1): Conv2d(64, 64, kernel_size=(1, 1), stride=(1, 1))
        )
        (drop_path): Identity()
        (ln2): LayerNorm((64,), eps=1e-05, elementwise_affine=True)
        (mlp): Sequential(
          (0): Linear(in_features=64, out_features=256, bias=True)
          (1): GELU(approximate='none')
          (2): Linear(in_features=256, out_features=64, bias=True)
        )
      )
      (conv1_1): Conv2d(192, 192, kernel_size=(1, 1), stride=(1, 1))
      (conv3d): Conv3d(1, 1, kernel_size=(1, 1, 3), stride=(1, 1, 1), padding=(0, 0, 1))
      (conv_block): Sequential(
        (0): Conv2d(64, 64, kernel_size=(3, 3), stride=(1, 1), padding=(1, 1), bias=False)
        (1): ReLU(inplace=True)
        (2): Conv2d(64, 64, kernel_size=(3, 3), stride=(1, 1), padding=(1, 1), bias=False)
      )
      (mamba_layers): ModuleList(
        (0-3): 4 x Block(
          (mixer): Mamba(
            (in_proj): Linear(in_features=64, out_features=256, bias=False)
            (conv1d): Conv1d(128, 128, kernel_size=(4,), stride=(1,), padding=(3,), groups=128)
            (act): SiLU()
            (x_proj): Linear(in_features=128, out_features=36, bias=False)
            (dt_proj): Linear(in_features=4, out_features=128, bias=True)
            (out_proj): Linear(in_features=128, out_features=64, bias=False)
          )
          (norm): LayerNorm((64,), eps=1e-05, elementwise_affine=True)
          (drop_path): Identity()
        )
      )
      (pcbam_module): MCALayer(
        (h_cw): MCAGate(
          (pools): ModuleList(
            (0): AdaptiveAvgPool2d(output_size=1)
            (1): StdPool()
          )
          (conv): Conv2d(1, 1, kernel_size=(1, 3), stride=(1, 1), padding=(0, 1), bias=False)
          (sigmoid): Sigmoid()
        )
        (w_hc): MCAGate(
          (pools): ModuleList(
            (0): AdaptiveAvgPool2d(output_size=1)
            (1): StdPool()
          )
          (conv): Conv2d(1, 1, kernel_size=(1, 3), stride=(1, 1), padding=(0, 1), bias=False)
          (sigmoid): Sigmoid()
        )
        (c_hw): MCAGate(
          (pools): ModuleList(
            (0): AdaptiveAvgPool2d(output_size=1)
            (1): StdPool()
          )
          (conv): Conv2d(1, 1, kernel_size=(1, 3), stride=(1, 1), padding=(0, 1), bias=False)
          (sigmoid): Sigmoid()
        )
      )
    )
    (2): Conv2d(192, 384, kernel_size=(2, 2), stride=(2, 2), bias=False)
  )
  (m_down3): Sequential(
    (0): ResBlock_CD2C(
      (trans_block): Block(
        (ln1): LayerNorm((128,), eps=1e-05, elementwise_affine=True)
        (msa): WMSA(
          (embedding_layer1): Conv2d(128, 384, kernel_size=(1, 1), stride=(1, 1))
          (linear1): Conv2d(128, 128, kernel_size=(1, 1), stride=(1, 1))
        )
        (drop_path): Identity()
        (ln2): LayerNorm((128,), eps=1e-05, elementwise_affine=True)
        (mlp): Sequential(
          (0): Linear(in_features=128, out_features=512, bias=True)
          (1): GELU(approximate='none')
          (2): Linear(in_features=512, out_features=128, bias=True)
        )
      )
      (conv1_1): Conv2d(384, 384, kernel_size=(1, 1), stride=(1, 1))
      (conv3d): Conv3d(1, 1, kernel_size=(1, 1, 3), stride=(1, 1, 1), padding=(0, 0, 1))
      (conv_block): Sequential(
        (0): Conv2d(128, 128, kernel_size=(3, 3), stride=(1, 1), padding=(1, 1), bias=False)
        (1): ReLU(inplace=True)
        (2): Conv2d(128, 128, kernel_size=(3, 3), stride=(1, 1), padding=(1, 1), bias=False)
      )
      (mamba_layers): ModuleList(
        (0-3): 4 x Block(
          (mixer): Mamba(
            (in_proj): Linear(in_features=128, out_features=512, bias=False)
            (conv1d): Conv1d(256, 256, kernel_size=(4,), stride=(1,), padding=(3,), groups=256)
            (act): SiLU()
            (x_proj): Linear(in_features=256, out_features=40, bias=False)
            (dt_proj): Linear(in_features=8, out_features=256, bias=True)
            (out_proj): Linear(in_features=256, out_features=128, bias=False)
          )
          (norm): LayerNorm((128,), eps=1e-05, elementwise_affine=True)
          (drop_path): Identity()
        )
      )
      (pcbam_module): MCALayer(
        (h_cw): MCAGate(
          (pools): ModuleList(
            (0): AdaptiveAvgPool2d(output_size=1)
            (1): StdPool()
          )
          (conv): Conv2d(1, 1, kernel_size=(1, 3), stride=(1, 1), padding=(0, 1), bias=False)
          (sigmoid): Sigmoid()
        )
        (w_hc): MCAGate(
          (pools): ModuleList(
            (0): AdaptiveAvgPool2d(output_size=1)
            (1): StdPool()
          )
          (conv): Conv2d(1, 1, kernel_size=(1, 3), stride=(1, 1), padding=(0, 1), bias=False)
          (sigmoid): Sigmoid()
        )
        (c_hw): MCAGate(
          (pools): ModuleList(
            (0): AdaptiveAvgPool2d(output_size=1)
            (1): StdPool()
          )
          (conv): Conv2d(1, 1, kernel_size=(1, 5), stride=(1, 1), padding=(0, 2), bias=False)
          (sigmoid): Sigmoid()
        )
      )
    )
    (1): ResBlock_CD2C(
      (trans_block): Block(
        (ln1): LayerNorm((128,), eps=1e-05, elementwise_affine=True)
        (msa): WMSA(
          (embedding_layer1): Conv2d(128, 384, kernel_size=(1, 1), stride=(1, 1))
          (linear1): Conv2d(128, 128, kernel_size=(1, 1), stride=(1, 1))
        )
        (drop_path): Identity()
        (ln2): LayerNorm((128,), eps=1e-05, elementwise_affine=True)
        (mlp): Sequential(
          (0): Linear(in_features=128, out_features=512, bias=True)
          (1): GELU(approximate='none')
          (2): Linear(in_features=512, out_features=128, bias=True)
        )
      )
      (conv1_1): Conv2d(384, 384, kernel_size=(1, 1), stride=(1, 1))
      (conv3d): Conv3d(1, 1, kernel_size=(1, 1, 3), stride=(1, 1, 1), padding=(0, 0, 1))
      (conv_block): Sequential(
        (0): Conv2d(128, 128, kernel_size=(3, 3), stride=(1, 1), padding=(1, 1), bias=False)
        (1): ReLU(inplace=True)
        (2): Conv2d(128, 128, kernel_size=(3, 3), stride=(1, 1), padding=(1, 1), bias=False)
      )
      (mamba_layers): ModuleList(
        (0-3): 4 x Block(
          (mixer): Mamba(
            (in_proj): Linear(in_features=128, out_features=512, bias=False)
            (conv1d): Conv1d(256, 256, kernel_size=(4,), stride=(1,), padding=(3,), groups=256)
            (act): SiLU()
            (x_proj): Linear(in_features=256, out_features=40, bias=False)
            (dt_proj): Linear(in_features=8, out_features=256, bias=True)
            (out_proj): Linear(in_features=256, out_features=128, bias=False)
          )
          (norm): LayerNorm((128,), eps=1e-05, elementwise_affine=True)
          (drop_path): Identity()
        )
      )
      (pcbam_module): MCALayer(
        (h_cw): MCAGate(
          (pools): ModuleList(
            (0): AdaptiveAvgPool2d(output_size=1)
            (1): StdPool()
          )
          (conv): Conv2d(1, 1, kernel_size=(1, 3), stride=(1, 1), padding=(0, 1), bias=False)
          (sigmoid): Sigmoid()
        )
        (w_hc): MCAGate(
          (pools): ModuleList(
            (0): AdaptiveAvgPool2d(output_size=1)
            (1): StdPool()
          )
          (conv): Conv2d(1, 1, kernel_size=(1, 3), stride=(1, 1), padding=(0, 1), bias=False)
          (sigmoid): Sigmoid()
        )
        (c_hw): MCAGate(
          (pools): ModuleList(
            (0): AdaptiveAvgPool2d(output_size=1)
            (1): StdPool()
          )
          (conv): Conv2d(1, 1, kernel_size=(1, 5), stride=(1, 1), padding=(0, 2), bias=False)
          (sigmoid): Sigmoid()
        )
      )
    )
    (2): Conv2d(384, 768, kernel_size=(2, 2), stride=(2, 2), bias=False)
  )
  (m_body): Sequential(
    (0): ResBlock_CD2C(
      (trans_block): Block(
        (ln1): LayerNorm((256,), eps=1e-05, elementwise_affine=True)
        (msa): WMSA(
          (embedding_layer1): Conv2d(256, 768, kernel_size=(1, 1), stride=(1, 1))
          (linear1): Conv2d(256, 256, kernel_size=(1, 1), stride=(1, 1))
        )
        (drop_path): Identity()
        (ln2): LayerNorm((256,), eps=1e-05, elementwise_affine=True)
        (mlp): Sequential(
          (0): Linear(in_features=256, out_features=1024, bias=True)
          (1): GELU(approximate='none')
          (2): Linear(in_features=1024, out_features=256, bias=True)
        )
      )
      (conv1_1): Conv2d(768, 768, kernel_size=(1, 1), stride=(1, 1))
      (conv3d): Conv3d(1, 1, kernel_size=(1, 1, 3), stride=(1, 1, 1), padding=(0, 0, 1))
      (conv_block): Sequential(
        (0): Conv2d(256, 256, kernel_size=(3, 3), stride=(1, 1), padding=(1, 1), bias=False)
        (1): ReLU(inplace=True)
        (2): Conv2d(256, 256, kernel_size=(3, 3), stride=(1, 1), padding=(1, 1), bias=False)
      )
      (mamba_layers): ModuleList(
        (0-3): 4 x Block(
          (mixer): Mamba(
            (in_proj): Linear(in_features=256, out_features=1024, bias=False)
            (conv1d): Conv1d(512, 512, kernel_size=(4,), stride=(1,), padding=(3,), groups=512)
            (act): SiLU()
            (x_proj): Linear(in_features=512, out_features=48, bias=False)
            (dt_proj): Linear(in_features=16, out_features=512, bias=True)
            (out_proj): Linear(in_features=512, out_features=256, bias=False)
          )
          (norm): LayerNorm((256,), eps=1e-05, elementwise_affine=True)
          (drop_path): Identity()
        )
      )
      (pcbam_module): MCALayer(
        (h_cw): MCAGate(
          (pools): ModuleList(
            (0): AdaptiveAvgPool2d(output_size=1)
            (1): StdPool()
          )
          (conv): Conv2d(1, 1, kernel_size=(1, 3), stride=(1, 1), padding=(0, 1), bias=False)
          (sigmoid): Sigmoid()
        )
        (w_hc): MCAGate(
          (pools): ModuleList(
            (0): AdaptiveAvgPool2d(output_size=1)
            (1): StdPool()
          )
          (conv): Conv2d(1, 1, kernel_size=(1, 3), stride=(1, 1), padding=(0, 1), bias=False)
          (sigmoid): Sigmoid()
        )
        (c_hw): MCAGate(
          (pools): ModuleList(
            (0): AdaptiveAvgPool2d(output_size=1)
            (1): StdPool()
          )
          (conv): Conv2d(1, 1, kernel_size=(1, 5), stride=(1, 1), padding=(0, 2), bias=False)
          (sigmoid): Sigmoid()
        )
      )
    )
    (1): ResBlock_CD2C(
      (trans_block): Block(
        (ln1): LayerNorm((256,), eps=1e-05, elementwise_affine=True)
        (msa): WMSA(
          (embedding_layer1): Conv2d(256, 768, kernel_size=(1, 1), stride=(1, 1))
          (linear1): Conv2d(256, 256, kernel_size=(1, 1), stride=(1, 1))
        )
        (drop_path): Identity()
        (ln2): LayerNorm((256,), eps=1e-05, elementwise_affine=True)
        (mlp): Sequential(
          (0): Linear(in_features=256, out_features=1024, bias=True)
          (1): GELU(approximate='none')
          (2): Linear(in_features=1024, out_features=256, bias=True)
        )
      )
      (conv1_1): Conv2d(768, 768, kernel_size=(1, 1), stride=(1, 1))
      (conv3d): Conv3d(1, 1, kernel_size=(1, 1, 3), stride=(1, 1, 1), padding=(0, 0, 1))
      (conv_block): Sequential(
        (0): Conv2d(256, 256, kernel_size=(3, 3), stride=(1, 1), padding=(1, 1), bias=False)
        (1): ReLU(inplace=True)
        (2): Conv2d(256, 256, kernel_size=(3, 3), stride=(1, 1), padding=(1, 1), bias=False)
      )
      (mamba_layers): ModuleList(
        (0-3): 4 x Block(
          (mixer): Mamba(
            (in_proj): Linear(in_features=256, out_features=1024, bias=False)
            (conv1d): Conv1d(512, 512, kernel_size=(4,), stride=(1,), padding=(3,), groups=512)
            (act): SiLU()
            (x_proj): Linear(in_features=512, out_features=48, bias=False)
            (dt_proj): Linear(in_features=16, out_features=512, bias=True)
            (out_proj): Linear(in_features=512, out_features=256, bias=False)
          )
          (norm): LayerNorm((256,), eps=1e-05, elementwise_affine=True)
          (drop_path): Identity()
        )
      )
      (pcbam_module): MCALayer(
        (h_cw): MCAGate(
          (pools): ModuleList(
            (0): AdaptiveAvgPool2d(output_size=1)
            (1): StdPool()
          )
          (conv): Conv2d(1, 1, kernel_size=(1, 3), stride=(1, 1), padding=(0, 1), bias=False)
          (sigmoid): Sigmoid()
        )
        (w_hc): MCAGate(
          (pools): ModuleList(
            (0): AdaptiveAvgPool2d(output_size=1)
            (1): StdPool()
          )
          (conv): Conv2d(1, 1, kernel_size=(1, 3), stride=(1, 1), padding=(0, 1), bias=False)
          (sigmoid): Sigmoid()
        )
        (c_hw): MCAGate(
          (pools): ModuleList(
            (0): AdaptiveAvgPool2d(output_size=1)
            (1): StdPool()
          )
          (conv): Conv2d(1, 1, kernel_size=(1, 5), stride=(1, 1), padding=(0, 2), bias=False)
          (sigmoid): Sigmoid()
        )
      )
    )
  )
  (m_up3): Sequential(
    (0): ConvTranspose2d(768, 384, kernel_size=(2, 2), stride=(2, 2), bias=False)
    (1): ResBlock_CD2C(
      (trans_block): Block(
        (ln1): LayerNorm((128,), eps=1e-05, elementwise_affine=True)
        (msa): WMSA(
          (embedding_layer1): Conv2d(128, 384, kernel_size=(1, 1), stride=(1, 1))
          (linear1): Conv2d(128, 128, kernel_size=(1, 1), stride=(1, 1))
        )
        (drop_path): Identity()
        (ln2): LayerNorm((128,), eps=1e-05, elementwise_affine=True)
        (mlp): Sequential(
          (0): Linear(in_features=128, out_features=512, bias=True)
          (1): GELU(approximate='none')
          (2): Linear(in_features=512, out_features=128, bias=True)
        )
      )
      (conv1_1): Conv2d(384, 384, kernel_size=(1, 1), stride=(1, 1))
      (conv3d): Conv3d(1, 1, kernel_size=(1, 1, 3), stride=(1, 1, 1), padding=(0, 0, 1))
      (conv_block): Sequential(
        (0): Conv2d(128, 128, kernel_size=(3, 3), stride=(1, 1), padding=(1, 1), bias=False)
        (1): ReLU(inplace=True)
        (2): Conv2d(128, 128, kernel_size=(3, 3), stride=(1, 1), padding=(1, 1), bias=False)
      )
      (mamba_layers): ModuleList(
        (0-3): 4 x Block(
          (mixer): Mamba(
            (in_proj): Linear(in_features=128, out_features=512, bias=False)
            (conv1d): Conv1d(256, 256, kernel_size=(4,), stride=(1,), padding=(3,), groups=256)
            (act): SiLU()
            (x_proj): Linear(in_features=256, out_features=40, bias=False)
            (dt_proj): Linear(in_features=8, out_features=256, bias=True)
            (out_proj): Linear(in_features=256, out_features=128, bias=False)
          )
          (norm): LayerNorm((128,), eps=1e-05, elementwise_affine=True)
          (drop_path): Identity()
        )
      )
      (pcbam_module): MCALayer(
        (h_cw): MCAGate(
          (pools): ModuleList(
            (0): AdaptiveAvgPool2d(output_size=1)
            (1): StdPool()
          )
          (conv): Conv2d(1, 1, kernel_size=(1, 3), stride=(1, 1), padding=(0, 1), bias=False)
          (sigmoid): Sigmoid()
        )
        (w_hc): MCAGate(
          (pools): ModuleList(
            (0): AdaptiveAvgPool2d(output_size=1)
            (1): StdPool()
          )
          (conv): Conv2d(1, 1, kernel_size=(1, 3), stride=(1, 1), padding=(0, 1), bias=False)
          (sigmoid): Sigmoid()
        )
        (c_hw): MCAGate(
          (pools): ModuleList(
            (0): AdaptiveAvgPool2d(output_size=1)
            (1): StdPool()
          )
          (conv): Conv2d(1, 1, kernel_size=(1, 5), stride=(1, 1), padding=(0, 2), bias=False)
          (sigmoid): Sigmoid()
        )
      )
    )
    (2): ResBlock_CD2C(
      (trans_block): Block(
        (ln1): LayerNorm((128,), eps=1e-05, elementwise_affine=True)
        (msa): WMSA(
          (embedding_layer1): Conv2d(128, 384, kernel_size=(1, 1), stride=(1, 1))
          (linear1): Conv2d(128, 128, kernel_size=(1, 1), stride=(1, 1))
        )
        (drop_path): Identity()
        (ln2): LayerNorm((128,), eps=1e-05, elementwise_affine=True)
        (mlp): Sequential(
          (0): Linear(in_features=128, out_features=512, bias=True)
          (1): GELU(approximate='none')
          (2): Linear(in_features=512, out_features=128, bias=True)
        )
      )
      (conv1_1): Conv2d(384, 384, kernel_size=(1, 1), stride=(1, 1))
      (conv3d): Conv3d(1, 1, kernel_size=(1, 1, 3), stride=(1, 1, 1), padding=(0, 0, 1))
      (conv_block): Sequential(
        (0): Conv2d(128, 128, kernel_size=(3, 3), stride=(1, 1), padding=(1, 1), bias=False)
        (1): ReLU(inplace=True)
        (2): Conv2d(128, 128, kernel_size=(3, 3), stride=(1, 1), padding=(1, 1), bias=False)
      )
      (mamba_layers): ModuleList(
        (0-3): 4 x Block(
          (mixer): Mamba(
            (in_proj): Linear(in_features=128, out_features=512, bias=False)
            (conv1d): Conv1d(256, 256, kernel_size=(4,), stride=(1,), padding=(3,), groups=256)
            (act): SiLU()
            (x_proj): Linear(in_features=256, out_features=40, bias=False)
            (dt_proj): Linear(in_features=8, out_features=256, bias=True)
            (out_proj): Linear(in_features=256, out_features=128, bias=False)
          )
          (norm): LayerNorm((128,), eps=1e-05, elementwise_affine=True)
          (drop_path): Identity()
        )
      )
      (pcbam_module): MCALayer(
        (h_cw): MCAGate(
          (pools): ModuleList(
            (0): AdaptiveAvgPool2d(output_size=1)
            (1): StdPool()
          )
          (conv): Conv2d(1, 1, kernel_size=(1, 3), stride=(1, 1), padding=(0, 1), bias=False)
          (sigmoid): Sigmoid()
        )
        (w_hc): MCAGate(
          (pools): ModuleList(
            (0): AdaptiveAvgPool2d(output_size=1)
            (1): StdPool()
          )
          (conv): Conv2d(1, 1, kernel_size=(1, 3), stride=(1, 1), padding=(0, 1), bias=False)
          (sigmoid): Sigmoid()
        )
        (c_hw): MCAGate(
          (pools): ModuleList(
            (0): AdaptiveAvgPool2d(output_size=1)
            (1): StdPool()
          )
          (conv): Conv2d(1, 1, kernel_size=(1, 5), stride=(1, 1), padding=(0, 2), bias=False)
          (sigmoid): Sigmoid()
        )
      )
    )
  )
  (m_up2): Sequential(
    (0): ConvTranspose2d(384, 192, kernel_size=(2, 2), stride=(2, 2), bias=False)
    (1): ResBlock_CD2C(
      (trans_block): Block(
        (ln1): LayerNorm((64,), eps=1e-05, elementwise_affine=True)
        (msa): WMSA(
          (embedding_layer1): Conv2d(64, 192, kernel_size=(1, 1), stride=(1, 1))
          (linear1): Conv2d(64, 64, kernel_size=(1, 1), stride=(1, 1))
        )
        (drop_path): Identity()
        (ln2): LayerNorm((64,), eps=1e-05, elementwise_affine=True)
        (mlp): Sequential(
          (0): Linear(in_features=64, out_features=256, bias=True)
          (1): GELU(approximate='none')
          (2): Linear(in_features=256, out_features=64, bias=True)
        )
      )
      (conv1_1): Conv2d(192, 192, kernel_size=(1, 1), stride=(1, 1))
      (conv3d): Conv3d(1, 1, kernel_size=(1, 1, 3), stride=(1, 1, 1), padding=(0, 0, 1))
      (conv_block): Sequential(
        (0): Conv2d(64, 64, kernel_size=(3, 3), stride=(1, 1), padding=(1, 1), bias=False)
        (1): ReLU(inplace=True)
        (2): Conv2d(64, 64, kernel_size=(3, 3), stride=(1, 1), padding=(1, 1), bias=False)
      )
      (mamba_layers): ModuleList(
        (0-3): 4 x Block(
          (mixer): Mamba(
            (in_proj): Linear(in_features=64, out_features=256, bias=False)
            (conv1d): Conv1d(128, 128, kernel_size=(4,), stride=(1,), padding=(3,), groups=128)
            (act): SiLU()
            (x_proj): Linear(in_features=128, out_features=36, bias=False)
            (dt_proj): Linear(in_features=4, out_features=128, bias=True)
            (out_proj): Linear(in_features=128, out_features=64, bias=False)
          )
          (norm): LayerNorm((64,), eps=1e-05, elementwise_affine=True)
          (drop_path): Identity()
        )
      )
      (pcbam_module): MCALayer(
        (h_cw): MCAGate(
          (pools): ModuleList(
            (0): AdaptiveAvgPool2d(output_size=1)
            (1): StdPool()
          )
          (conv): Conv2d(1, 1, kernel_size=(1, 3), stride=(1, 1), padding=(0, 1), bias=False)
          (sigmoid): Sigmoid()
        )
        (w_hc): MCAGate(
          (pools): ModuleList(
            (0): AdaptiveAvgPool2d(output_size=1)
            (1): StdPool()
          )
          (conv): Conv2d(1, 1, kernel_size=(1, 3), stride=(1, 1), padding=(0, 1), bias=False)
          (sigmoid): Sigmoid()
        )
        (c_hw): MCAGate(
          (pools): ModuleList(
            (0): AdaptiveAvgPool2d(output_size=1)
            (1): StdPool()
          )
          (conv): Conv2d(1, 1, kernel_size=(1, 3), stride=(1, 1), padding=(0, 1), bias=False)
          (sigmoid): Sigmoid()
        )
      )
    )
    (2): ResBlock_CD2C(
      (trans_block): Block(
        (ln1): LayerNorm((64,), eps=1e-05, elementwise_affine=True)
        (msa): WMSA(
          (embedding_layer1): Conv2d(64, 192, kernel_size=(1, 1), stride=(1, 1))
          (linear1): Conv2d(64, 64, kernel_size=(1, 1), stride=(1, 1))
        )
        (drop_path): Identity()
        (ln2): LayerNorm((64,), eps=1e-05, elementwise_affine=True)
        (mlp): Sequential(
          (0): Linear(in_features=64, out_features=256, bias=True)
          (1): GELU(approximate='none')
          (2): Linear(in_features=256, out_features=64, bias=True)
        )
      )
      (conv1_1): Conv2d(192, 192, kernel_size=(1, 1), stride=(1, 1))
      (conv3d): Conv3d(1, 1, kernel_size=(1, 1, 3), stride=(1, 1, 1), padding=(0, 0, 1))
      (conv_block): Sequential(
        (0): Conv2d(64, 64, kernel_size=(3, 3), stride=(1, 1), padding=(1, 1), bias=False)
        (1): ReLU(inplace=True)
        (2): Conv2d(64, 64, kernel_size=(3, 3), stride=(1, 1), padding=(1, 1), bias=False)
      )
      (mamba_layers): ModuleList(
        (0-3): 4 x Block(
          (mixer): Mamba(
            (in_proj): Linear(in_features=64, out_features=256, bias=False)
            (conv1d): Conv1d(128, 128, kernel_size=(4,), stride=(1,), padding=(3,), groups=128)
            (act): SiLU()
            (x_proj): Linear(in_features=128, out_features=36, bias=False)
            (dt_proj): Linear(in_features=4, out_features=128, bias=True)
            (out_proj): Linear(in_features=128, out_features=64, bias=False)
          )
          (norm): LayerNorm((64,), eps=1e-05, elementwise_affine=True)
          (drop_path): Identity()
        )
      )
      (pcbam_module): MCALayer(
        (h_cw): MCAGate(
          (pools): ModuleList(
            (0): AdaptiveAvgPool2d(output_size=1)
            (1): StdPool()
          )
          (conv): Conv2d(1, 1, kernel_size=(1, 3), stride=(1, 1), padding=(0, 1), bias=False)
          (sigmoid): Sigmoid()
        )
        (w_hc): MCAGate(
          (pools): ModuleList(
            (0): AdaptiveAvgPool2d(output_size=1)
            (1): StdPool()
          )
          (conv): Conv2d(1, 1, kernel_size=(1, 3), stride=(1, 1), padding=(0, 1), bias=False)
          (sigmoid): Sigmoid()
        )
        (c_hw): MCAGate(
          (pools): ModuleList(
            (0): AdaptiveAvgPool2d(output_size=1)
            (1): StdPool()
          )
          (conv): Conv2d(1, 1, kernel_size=(1, 3), stride=(1, 1), padding=(0, 1), bias=False)
          (sigmoid): Sigmoid()
        )
      )
    )
  )
  (m_up1): Sequential(
    (0): ConvTranspose2d(192, 96, kernel_size=(2, 2), stride=(2, 2), bias=False)
    (1): ResBlock_CD2C(
      (trans_block): Block(
        (ln1): LayerNorm((32,), eps=1e-05, elementwise_affine=True)
        (msa): WMSA(
          (embedding_layer1): Conv2d(32, 96, kernel_size=(1, 1), stride=(1, 1))
          (linear1): Conv2d(32, 32, kernel_size=(1, 1), stride=(1, 1))
        )
        (drop_path): Identity()
        (ln2): LayerNorm((32,), eps=1e-05, elementwise_affine=True)
        (mlp): Sequential(
          (0): Linear(in_features=32, out_features=128, bias=True)
          (1): GELU(approximate='none')
          (2): Linear(in_features=128, out_features=32, bias=True)
        )
      )
      (conv1_1): Conv2d(96, 96, kernel_size=(1, 1), stride=(1, 1))
      (conv3d): Conv3d(1, 1, kernel_size=(1, 1, 3), stride=(1, 1, 1), padding=(0, 0, 1))
      (conv_block): Sequential(
        (0): Conv2d(32, 32, kernel_size=(3, 3), stride=(1, 1), padding=(1, 1), bias=False)
        (1): ReLU(inplace=True)
        (2): Conv2d(32, 32, kernel_size=(3, 3), stride=(1, 1), padding=(1, 1), bias=False)
      )
      (mamba_layers): ModuleList(
        (0-3): 4 x Block(
          (mixer): Mamba(
            (in_proj): Linear(in_features=32, out_features=128, bias=False)
            (conv1d): Conv1d(64, 64, kernel_size=(4,), stride=(1,), padding=(3,), groups=64)
            (act): SiLU()
            (x_proj): Linear(in_features=64, out_features=34, bias=False)
            (dt_proj): Linear(in_features=2, out_features=64, bias=True)
            (out_proj): Linear(in_features=64, out_features=32, bias=False)
          )
          (norm): LayerNorm((32,), eps=1e-05, elementwise_affine=True)
          (drop_path): Identity()
        )
      )
      (pcbam_module): MCALayer(
        (h_cw): MCAGate(
          (pools): ModuleList(
            (0): AdaptiveAvgPool2d(output_size=1)
            (1): StdPool()
          )
          (conv): Conv2d(1, 1, kernel_size=(1, 3), stride=(1, 1), padding=(0, 1), bias=False)
          (sigmoid): Sigmoid()
        )
        (w_hc): MCAGate(
          (pools): ModuleList(
            (0): AdaptiveAvgPool2d(output_size=1)
            (1): StdPool()
          )
          (conv): Conv2d(1, 1, kernel_size=(1, 3), stride=(1, 1), padding=(0, 1), bias=False)
          (sigmoid): Sigmoid()
        )
        (c_hw): MCAGate(
          (pools): ModuleList(
            (0): AdaptiveAvgPool2d(output_size=1)
            (1): StdPool()
          )
          (conv): Conv2d(1, 1, kernel_size=(1, 3), stride=(1, 1), padding=(0, 1), bias=False)
          (sigmoid): Sigmoid()
        )
      )
    )
    (2): ResBlock_CD2C(
      (trans_block): Block(
        (ln1): LayerNorm((32,), eps=1e-05, elementwise_affine=True)
        (msa): WMSA(
          (embedding_layer1): Conv2d(32, 96, kernel_size=(1, 1), stride=(1, 1))
          (linear1): Conv2d(32, 32, kernel_size=(1, 1), stride=(1, 1))
        )
        (drop_path): Identity()
        (ln2): LayerNorm((32,), eps=1e-05, elementwise_affine=True)
        (mlp): Sequential(
          (0): Linear(in_features=32, out_features=128, bias=True)
          (1): GELU(approximate='none')
          (2): Linear(in_features=128, out_features=32, bias=True)
        )
      )
      (conv1_1): Conv2d(96, 96, kernel_size=(1, 1), stride=(1, 1))
      (conv3d): Conv3d(1, 1, kernel_size=(1, 1, 3), stride=(1, 1, 1), padding=(0, 0, 1))
      (conv_block): Sequential(
        (0): Conv2d(32, 32, kernel_size=(3, 3), stride=(1, 1), padding=(1, 1), bias=False)
        (1): ReLU(inplace=True)
        (2): Conv2d(32, 32, kernel_size=(3, 3), stride=(1, 1), padding=(1, 1), bias=False)
      )
      (mamba_layers): ModuleList(
        (0-3): 4 x Block(
          (mixer): Mamba(
            (in_proj): Linear(in_features=32, out_features=128, bias=False)
            (conv1d): Conv1d(64, 64, kernel_size=(4,), stride=(1,), padding=(3,), groups=64)
            (act): SiLU()
            (x_proj): Linear(in_features=64, out_features=34, bias=False)
            (dt_proj): Linear(in_features=2, out_features=64, bias=True)
            (out_proj): Linear(in_features=64, out_features=32, bias=False)
          )
          (norm): LayerNorm((32,), eps=1e-05, elementwise_affine=True)
          (drop_path): Identity()
        )
      )
      (pcbam_module): MCALayer(
        (h_cw): MCAGate(
          (pools): ModuleList(
            (0): AdaptiveAvgPool2d(output_size=1)
            (1): StdPool()
          )
          (conv): Conv2d(1, 1, kernel_size=(1, 3), stride=(1, 1), padding=(0, 1), bias=False)
          (sigmoid): Sigmoid()
        )
        (w_hc): MCAGate(
          (pools): ModuleList(
            (0): AdaptiveAvgPool2d(output_size=1)
            (1): StdPool()
          )
          (conv): Conv2d(1, 1, kernel_size=(1, 3), stride=(1, 1), padding=(0, 1), bias=False)
          (sigmoid): Sigmoid()
        )
        (c_hw): MCAGate(
          (pools): ModuleList(
            (0): AdaptiveAvgPool2d(output_size=1)
            (1): StdPool()
          )
          (conv): Conv2d(1, 1, kernel_size=(1, 3), stride=(1, 1), padding=(0, 1), bias=False)
          (sigmoid): Sigmoid()
        )
      )
    )
  )
  (m_tail): Sequential(
    (0): Conv2d(96, 3, kernel_size=(3, 3), stride=(1, 1), padding=(1, 1), bias=False)
  )
  (fft): ResBlock_fft_bench(
    (mag): Conv2d(3, 3, kernel_size=(1, 1), stride=(1, 1))
    (mag_bn): BatchNorm2d(3, eps=1e-05, momentum=0.1, affine=True, track_running_stats=True)
    (mag_relu): ReLU(inplace=True)
    (pha): Sequential(
      (0): Conv2d(3, 3, kernel_size=(1, 1), stride=(1, 1))
      (1): BatchNorm2d(3, eps=1e-05, momentum=0.1, affine=True, track_running_stats=True)
      (2): ReLU(inplace=True)
      (3): Conv2d(3, 3, kernel_size=(1, 1), stride=(1, 1))
      (4): Sigmoid()
    )
    (conv1): Conv2d(6, 1, kernel_size=(1, 1), stride=(1, 1))
  )
  (conv1): Conv2d(96, 96, kernel_size=(1, 1), stride=(1, 1))
  (bn1): BatchNorm2d(96, eps=1e-05, momentum=0.1, affine=True, track_running_stats=True)
  (relu1): ReLU()
  (conv2): Conv2d(96, 192, kernel_size=(2, 2), stride=(2, 2))
  (bn2): BatchNorm2d(192, eps=1e-05, momentum=0.1, affine=True, track_running_stats=True)
  (relu2): ReLU()
  (conv3): Conv2d(96, 384, kernel_size=(4, 4), stride=(4, 4))
  (bn3): BatchNorm2d(384, eps=1e-05, momentum=0.1, affine=True, track_running_stats=True)
  (relu3): ReLU()
)

25-05-14 18:45:33.715 : 
 |  mean  |  min   |  max   |  std   || shape               
 |  0.001 | -0.166 |  0.188 |  0.042 | torch.Size([96, 3, 3, 3]) || m_head.0.weight
 |  1.000 |  0.690 |  1.333 |  0.155 | torch.Size([32]) || m_down1.0.trans_block.ln1.weight
 | -0.026 | -0.272 |  0.279 |  0.131 | torch.Size([32]) || m_down1.0.trans_block.ln1.bias
…
    G_optimizer_lr: 0.0001
    G_optimizer_clipgrad: None
    G_scheduler_type: MultiStepLR
    G_scheduler_milestones: [60000, 90000, 120000, 240000, 24000000]
    G_scheduler_gamma: 0.5
    G_regularizer_orthstep: None
    G_regularizer_clipstep: None
    checkpoint_test: 5000
    checkpoint_save: 5000
    checkpoint_print: 5000
  ]
  opt_path: options/train_drnet.json
  is_train: True

25-05-16 13:45:23.239 : Random seed: 9963
25-05-16 13:45:23.321 : Number of train images: 31,005, iters: 31,005
25-05-16 13:45:23.873 : 
Networks name: DRNet
Params number: 17746115
Net structure:
DRNet(
  (head1): Conv2d(3, 64, kernel_size=(3, 3), stride=(1, 1), padding=(1, 1))
  (head1_1): ResBlock(
    (body): Sequential(
      (0): Conv2d(64, 64, kernel_size=(3, 3), stride=(1, 1), padding=(1, 1))
      (1): ReLU(inplace=True)
      (2): Conv2d(64, 64, kernel_size=(3, 3), stride=(1, 1), padding=(1, 1))
    )
  )
  (head1_3): VisionEncoder(
    (encoder): TransformerEncoder(
      (layers): ModuleList(
        (0): TransformerEncoderLayer(
          (self_attn): MultiheadAttention(
            (out_proj): NonDynamicallyQuantizableLinear(in_features=256, out_features=256, bias=False)
          )
          (linear1): Linear(in_features=256, out_features=1024, bias=True)
          (dropout): Dropout(p=0, inplace=False)
          (linear2): Linear(in_features=1024, out_features=256, bias=True)
          (norm1): LayerNorm((256,), eps=1e-05, elementwise_affine=True)
          (norm2): LayerNorm((256,), eps=1e-05, elementwise_affine=True)
          (dropout1): Dropout(p=0, inplace=False)
          (dropout2): Dropout(p=0, inplace=False)
        )
      )
    )
    (position_encoding): LearnedPositionalEncoding(
      (pe): Embedding(4096, 256)
    )
    (dropout_layer1): Dropout(p=0, inplace=False)
  )
  (body1_1): Sequential(
    (0): ResBlock(
      (body): Sequential(
        (0): Conv2d(64, 64, kernel_size=(3, 3), stride=(1, 1), padding=(1, 1))
        (1): ReLU(inplace=True)
        (2): Conv2d(64, 64, kernel_size=(3, 3), stride=(1, 1), padding=(1, 1))
      )
    )
    (1): Conv2d(64, 64, kernel_size=(3, 3), stride=(1, 1), padding=(1, 1))
    (2): ReLU(inplace=True)
  )
  (body1_2): Sequential(
    (0): VisionEncoder(
      (encoder): TransformerEncoder(
        (layers): ModuleList(
          (0): TransformerEncoderLayer(
            (self_attn): MultiheadAttention(
              (out_proj): NonDynamicallyQuantizableLinear(in_features=256, out_features=256, bias=False)
            )
            (linear1): Linear(in_features=256, out_features=1024, bias=True)
            (dropout): Dropout(p=0, inplace=False)
            (linear2): Linear(in_features=1024, out_features=256, bias=True)
            (norm1): LayerNorm((256,), eps=1e-05, elementwise_affine=True)
            (norm2): LayerNorm((256,), eps=1e-05, elementwise_affine=True)
            (dropout1): Dropout(p=0, inplace=False)
            (dropout2): Dropout(p=0, inplace=False)
          )
        )
      )
      (position_encoding): LearnedPositionalEncoding(
        (pe): Embedding(4096, 256)
      )
      (dropout_layer1): Dropout(p=0, inplace=False)
    )
    (1): ResBlock(
      (body): Sequential(
        (0): Conv2d(64, 64, kernel_size=(3, 3), stride=(1, 1), padding=(1, 1))
        (1): ReLU(inplace=True)
        (2): Conv2d(64, 64, kernel_size=(3, 3), stride=(1, 1), padding=(1, 1))
      )
    )
  )
  (body2_1): Sequential(
    (0): ResBlock(
      (body): Sequential(
        (0): Conv2d(64, 64, kernel_size=(3, 3), stride=(1, 1), padding=(1, 1))
        (1): ReLU(inplace=True)
        (2): Conv2d(64, 64, kernel_size=(3, 3), stride=(1, 1), padding=(1, 1))
      )
    )
    (1): VisionEncoder(
      (encoder): TransformerEncoder(
        (layers): ModuleList(
          (0): TransformerEncoderLayer(
            (self_attn): MultiheadAttention(
              (out_proj): NonDynamicallyQuantizableLinear(in_features=256, out_features=256, bias=False)
            )
            (linear1): Linear(in_features=256, out_features=1024, bias=True)
            (dropout): Dropout(p=0, inplace=False)
            (linear2): Linear(in_features=1024, out_features=256, bias=True)
            (norm1): LayerNorm((256,), eps=1e-05, elementwise_affine=True)
            (norm2): LayerNorm((256,), eps=1e-05, elementwise_affine=True)
            (dropout1): Dropout(p=0, inplace=False)
            (dropout2): Dropout(p=0, inplace=False)
          )
        )
      )
      (position_encoding): LearnedPositionalEncoding(
        (pe): Embedding(4096, 256)
      )
      (dropout_layer1): Dropout(p=0, inplace=False)
    )
  )
  (fusion2_1): Sequential(
    (0): Conv2d(128, 128, kernel_size=(5, 5), stride=(1, 1), padding=(2, 2), groups=128)
    (1): Conv2d(128, 64, kernel_size=(1, 1), stride=(1, 1))
  )
  (body2_2): Sequential(
    (0): ResBlock(
      (body): Sequential(
        (0): Conv2d(64, 64, kernel_size=(3, 3), stride=(1, 1), padding=(1, 1))
        (1): ReLU(inplace=True)
        (2): Conv2d(64, 64, kernel_size=(3, 3), stride=(1, 1), padding=(1, 1))
      )
    )
    (1): VisionEncoder(
      (encoder): TransformerEncoder(
        (layers): ModuleList(
          (0): TransformerEncoderLayer(
            (self_attn): MultiheadAttention(
              (out_proj): NonDynamicallyQuantizableLinear(in_features=256, out_features=256, bias=False)
            )
            (linear1): Linear(in_features=256, out_features=1024, bias=True)
            (dropout): Dropout(p=0, inplace=False)
            (linear2): Linear(in_features=1024, out_features=256, bias=True)
            (norm1): LayerNorm((256,), eps=1e-05, elementwise_affine=True)
            (norm2): LayerNorm((256,), eps=1e-05, elementwise_affine=True)
            (dropout1): Dropout(p=0, inplace=False)
            (dropout2): Dropout(p=0, inplace=False)
          )
        )
      )
      (position_encoding): LearnedPositionalEncoding(
        (pe): Embedding(4096, 256)
      )
      (dropout_layer1): Dropout(p=0, inplace=False)
    )
  )
  (fusion2_2): Sequential(
    (0): Conv2d(128, 128, kernel_size=(5, 5), stride=(1, 1), padding=(2, 2), groups=128)
    (1): Conv2d(128, 64, kernel_size=(1, 1), stride=(1, 1))
  )
  (body2_3): VisionEncoder(
    (encoder): TransformerEncoder(
      (layers): ModuleList(
        (0): TransformerEncoderLayer(
          (self_attn): MultiheadAttention(
            (out_proj): NonDynamicallyQuantizableLinear(in_features=256, out_features=256, bias=False)
          )
          (linear1): Linear(in_features=256, out_features=1024, bias=True)
          (dropout): Dropout(p=0, inplace=False)
          (linear2): Linear(in_features=1024, out_features=256, bias=True)
          (norm1): LayerNorm((256,), eps=1e-05, elementwise_affine=True)
          (norm2): LayerNorm((256,), eps=1e-05, elementwise_affine=True)
          (dropout1): Dropout(p=0, inplace=False)
          (dropout2): Dropout(p=0, inplace=False)
        )
      )
    )
    (position_encoding): LearnedPositionalEncoding(
      (pe): Embedding(4096, 256)
    )
    (dropout_layer1): Dropout(p=0, inplace=False)
  )
  (body3_1): Sequential(
    (0): Conv2d(64, 64, kernel_size=(3, 3), stride=(1, 1), padding=(1, 1))
    (1): ReLU(inplace=True)
    (2): VisionEncoder(
      (encoder): TransformerEncoder(
        (layers): ModuleList(
          (0): TransformerEncoderLayer(
            (self_attn): MultiheadAttention(
              (out_proj): NonDynamicallyQuantizableLinear(in_features=256, out_features=256, bias=False)
            )
            (linear1): Linear(in_features=256, out_features=1024, bias=True)
            (dropout): Dropout(p=0, inplace=False)
            (linear2): Linear(in_features=1024, out_features=256, bias=True)
            (norm1): LayerNorm((256,), eps=1e-05, elementwise_affine=True)
            (norm2): LayerNorm((256,), eps=1e-05, elementwise_affine=True)
            (dropout1): Dropout(p=0, inplace=False)
            (dropout2): Dropout(p=0, inplace=False)
          )
          (1): TransformerEncoderLayer(
            (self_attn): MultiheadAttention(
              (out_proj): NonDynamicallyQuantizableLinear(in_features=256, out_features=256, bias=False)
            )
            (linear1): Linear(in_features=256, out_features=1024, bias=True)
            (dropout): Dropout(p=0, inplace=False)
            (linear2): Linear(in_features=1024, out_features=256, bias=True)
            (norm1): LayerNorm((256,), eps=1e-05, elementwise_affine=True)
            (norm2): LayerNorm((256,), eps=1e-05, elementwise_affine=True)
            (dropout1): Dropout(p=0, inplace=False)
            (dropout2): Dropout(p=0, inplace=False)
          )
        )
      )
      (position_encoding): LearnedPositionalEncoding(
        (pe): Embedding(4096, 256)
      )
      (dropout_layer1): Dropout(p=0, inplace=False)
    )
  )
  (fusion3_1): Sequential(
    (0): Conv2d(128, 128, kernel_size=(5, 5), stride=(1, 1), padding=(2, 2), groups=128)
    (1): Conv2d(128, 64, kernel_size=(1, 1), stride=(1, 1))
  )
  (body3_2): Sequential(
    (0): Conv2d(64, 64, kernel_size=(3, 3), stride=(1, 1), padding=(1, 1))
    (1): ReLU(inplace=True)
    (2): VisionEncoder(
      (encoder): TransformerEncoder(
        (layers): ModuleList(
          (0): TransformerEncoderLayer(
            (self_attn): MultiheadAttention(
              (out_proj): NonDynamicallyQuantizableLinear(in_features=256, out_features=256, bias=False)
            )
            (linear1): Linear(in_features=256, out_features=1024, bias=True)
            (dropout): Dropout(p=0, inplace=False)
            (linear2): Linear(in_features=1024, out_features=256, bias=True)
            (norm1): LayerNorm((256,), eps=1e-05, elementwise_affine=True)
            (norm2): LayerNorm((256,), eps=1e-05, elementwise_affine=True)
            (dropout1): Dropout(p=0, inplace=False)
            (dropout2): Dropout(p=0, inplace=False)
          )
          (1): TransformerEncoderLayer(
            (self_attn): MultiheadAttention(
              (out_proj): NonDynamicallyQuantizableLinear(in_features=256, out_features=256, bias=False)
            )
            (linear1): Linear(in_features=256, out_features=1024, bias=True)
            (dropout): Dropout(p=0, inplace=False)
            (linear2): Linear(in_features=1024, out_features=256, bias=True)
            (norm1): LayerNorm((256,), eps=1e-05, elementwise_affine=True)
            (norm2): LayerNorm((256,), eps=1e-05, elementwise_affine=True)
            (dropout1): Dropout(p=0, inplace=False)
            (dropout2): Dropout(p=0, inplace=False)
          )
        )
      )
      (position_encoding): LearnedPositionalEncoding(
        (pe): Embedding(4096, 256)
      )
      (dropout_layer1): Dropout(p=0, inplace=False)
    )
  )
  (fusion3_2): Sequential(
    (0): Conv2d(128, 128, kernel_size=(5, 5), stride=(1, 1), padding=(2, 2), groups=128)
    (1): Conv2d(128, 64, kernel_size=(1, 1), stride=(1, 1))
  )
  (body3_3): VisionEncoder(
    (linear_encoding): Linear(in_features=256, out_features=256, bias=True)
    (mlp_head): Sequential(
      (0): Linear(in_features=256, out_features=1024, bias=True)
      (1): Dropout(p=0, inplace=False)
      (2): ReLU()
      (3): Linear(in_features=1024, out_features=256, bias=True)
      (4): Dropout(p=0, inplace=False)
    )
    (encoder): TransformerEncoder(
      (layers): ModuleList(
        (0): TransformerEncoderLayer(
          (self_attn): MultiheadAttention(
            (out_proj): NonDynamicallyQuantizableLinear(in_features=256, out_features=256, bias=False)
          )
          (linear1): Linear(in_features=256, out_features=1024, bias=True)
          (dropout): Dropout(p=0, inplace=False)
          (linear2): Linear(in_features=1024, out_features=256, bias=True)
          (norm1): LayerNorm((256,), eps=1e-05, elementwise_affine=True)
          (norm2): LayerNorm((256,), eps=1e-05, elementwise_affine=True)
          (dropout1): Dropout(p=0, inplace=False)
          (dropout2): Dropout(p=0, inplace=False)
        )
      )
    )
    (dropout_layer1): Dropout(p=0, inplace=False)
  )
  (fusion3_3): Sequential(
    (0): Conv2d(192, 192, kernel_size=(5, 5), stride=(1, 1), padding=(2, 2), groups=192)
    (1): Conv2d(192, 64, kernel_size=(1, 1), stride=(1, 1))
  )
  (body3_4): VisionEncoder(
    (linear_encoding): Linear(in_features=256, out_features=256, bias=True)
    (mlp_head): Sequential(
      (0): Linear(in_features=256, out_features=1024, bias=True)
      (1): Dropout(p=0, inplace=False)
      (2): ReLU()
      (3): Linear(in_features=1024, out_features=256, bias=True)
      (4): Dropout(p=0, inplace=False)
    )
    (encoder): TransformerEncoder(
      (layers): ModuleList(
        (0): TransformerEncoderLayer(
          (self_attn): MultiheadAttention(
            (out_proj): NonDynamicallyQuantizableLinear(in_features=256, out_features=256, bias=False)
          )
          (linear1): Linear(in_features=256, out_features=1024, bias=True)
          (dropout): Dropout(p=0, inplace=False)
          (linear2): Linear(in_features=1024, out_features=256, bias=True)
          (norm1): LayerNorm((256,), eps=1e-05, elementwise_affine=True)
          (norm2): LayerNorm((256,), eps=1e-05, elementwise_affine=True)
          (dropout1): Dropout(p=0, inplace=False)
          (dropout2): Dropout(p=0, inplace=False)
        )
      )
    )
    (dropout_layer1): Dropout(p=0, inplace=False)
  )
  (tail): Conv2d(64, 3, kernel_size=(3, 3), stride=(1, 1), padding=(1, 1))
)

25-05-16 13:45:26.441 : 
 |  mean  |  min   |  max   |  std   || shape               
 |  0.002 | -0.431 |  0.525 |  0.178 | torch.Size([64, 3, 3, 3]) || head1.weight
 | -0.001 | -0.329 |  0.276 |  0.180 | torch.Size([64]) || head1.bias
 |  0.000 | -0.495 |  0.459 |  0.097 | torch.Size([64, 64, 3, 3]) || head1_1.body.0.weight
 |  0.074 | -0.072 |  0.204 |  0.065 | torch.Size([64]) || head1_1.body.0.bias
…
    G_optimizer_lr: 0.0001
    G_optimizer_clipgrad: None
    G_scheduler_type: MultiStepLR
    G_scheduler_milestones: [60000, 90000, 120000, 240000, 24000000]
    G_scheduler_gamma: 0.5
    G_regularizer_orthstep: None
    G_regularizer_clipstep: None
    checkpoint_test: 5000
    checkpoint_save: 5000
    checkpoint_print: 5000
  ]
  opt_path: options/train_drnet.json
  is_train: True

25-05-16 13:46:02.925 : Random seed: 5000
25-05-16 13:46:03.011 : Number of train images: 31,005, iters: 31,005
25-05-16 13:46:03.590 : 
Networks name: DRNet
Params number: 39766211
Net structure:
DRNet(
  (head1): Conv2d(3, 64, kernel_size=(3, 3), stride=(1, 1), padding=(1, 1))
  (head1_1): ResBlock(
    (body): Sequential(
      (0): Conv2d(64, 64, kernel_size=(3, 3), stride=(1, 1), padding=(1, 1))
      (1): ReLU(inplace=True)
      (2): Conv2d(64, 64, kernel_size=(3, 3), stride=(1, 1), padding=(1, 1))
    )
  )
  (head1_3): VisionEncoder(
    (encoder): TransformerEncoder(
      (layers): ModuleList(
        (0): TransformerEncoderLayer(
          (self_attn): MultiheadAttention(
            (out_proj): NonDynamicallyQuantizableLinear(in_features=256, out_features=256, bias=False)
          )
          (linear1): Linear(in_features=256, out_features=1024, bias=True)
          (dropout): Dropout(p=0, inplace=False)
          (linear2): Linear(in_features=1024, out_features=256, bias=True)
          (norm1): LayerNorm((256,), eps=1e-05, elementwise_affine=True)
          (norm2): LayerNorm((256,), eps=1e-05, elementwise_affine=True)
          (dropout1): Dropout(p=0, inplace=False)
          (dropout2): Dropout(p=0, inplace=False)
        )
      )
    )
    (position_encoding): LearnedPositionalEncoding(
      (pe): Embedding(16384, 256)
    )
    (dropout_layer1): Dropout(p=0, inplace=False)
  )
  (body1_1): Sequential(
    (0): ResBlock(
      (body): Sequential(
        (0): Conv2d(64, 64, kernel_size=(3, 3), stride=(1, 1), padding=(1, 1))
        (1): ReLU(inplace=True)
        (2): Conv2d(64, 64, kernel_size=(3, 3), stride=(1, 1), padding=(1, 1))
      )
    )
    (1): Conv2d(64, 64, kernel_size=(3, 3), stride=(1, 1), padding=(1, 1))
    (2): ReLU(inplace=True)
  )
  (body1_2): Sequential(
    (0): VisionEncoder(
      (encoder): TransformerEncoder(
        (layers): ModuleList(
          (0): TransformerEncoderLayer(
            (self_attn): MultiheadAttention(
              (out_proj): NonDynamicallyQuantizableLinear(in_features=256, out_features=256, bias=False)
            )
            (linear1): Linear(in_features=256, out_features=1024, bias=True)
            (dropout): Dropout(p=0, inplace=False)
            (linear2): Linear(in_features=1024, out_features=256, bias=True)
            (norm1): LayerNorm((256,), eps=1e-05, elementwise_affine=True)
            (norm2): LayerNorm((256,), eps=1e-05, elementwise_affine=True)
            (dropout1): Dropout(p=0, inplace=False)
            (dropout2): Dropout(p=0, inplace=False)
          )
        )
      )
      (position_encoding): LearnedPositionalEncoding(
        (pe): Embedding(16384, 256)
      )
      (dropout_layer1): Dropout(p=0, inplace=False)
    )
    (1): ResBlock(
      (body): Sequential(
        (0): Conv2d(64, 64, kernel_size=(3, 3), stride=(1, 1), padding=(1, 1))
        (1): ReLU(inplace=True)
        (2): Conv2d(64, 64, kernel_size=(3, 3), stride=(1, 1), padding=(1, 1))
      )
    )
  )
  (body2_1): Sequential(
    (0): ResBlock(
      (body): Sequential(
        (0): Conv2d(64, 64, kernel_size=(3, 3), stride=(1, 1), padding=(1, 1))
        (1): ReLU(inplace=True)
        (2): Conv2d(64, 64, kernel_size=(3, 3), stride=(1, 1), padding=(1, 1))
      )
    )
    (1): VisionEncoder(
      (encoder): TransformerEncoder(
        (layers): ModuleList(
          (0): TransformerEncoderLayer(
            (self_attn): MultiheadAttention(
              (out_proj): NonDynamicallyQuantizableLinear(in_features=256, out_features=256, bias=False)
            )
            (linear1): Linear(in_features=256, out_features=1024, bias=True)
            (dropout): Dropout(p=0, inplace=False)
            (linear2): Linear(in_features=1024, out_features=256, bias=True)
            (norm1): LayerNorm((256,), eps=1e-05, elementwise_affine=True)
            (norm2): LayerNorm((256,), eps=1e-05, elementwise_affine=True)
            (dropout1): Dropout(p=0, inplace=False)
            (dropout2): Dropout(p=0, inplace=False)
          )
        )
      )
      (position_encoding): LearnedPositionalEncoding(
        (pe): Embedding(16384, 256)
      )
      (dropout_layer1): Dropout(p=0, inplace=False)
    )
  )
  (fusion2_1): Sequential(
    (0): Conv2d(128, 128, kernel_size=(5, 5), stride=(1, 1), padding=(2, 2), groups=128)
    (1): Conv2d(128, 64, kernel_size=(1, 1), stride=(1, 1))
  )
  (body2_2): Sequential(
    (0): ResBlock(
      (body): Sequential(
        (0): Conv2d(64, 64, kernel_size=(3, 3), stride=(1, 1), padding=(1, 1))
        (1): ReLU(inplace=True)
        (2): Conv2d(64, 64, kernel_size=(3, 3), stride=(1, 1), padding=(1, 1))
      )
    )
    (1): VisionEncoder(
      (encoder): TransformerEncoder(
        (layers): ModuleList(
          (0): TransformerEncoderLayer(
            (self_attn): MultiheadAttention(
              (out_proj): NonDynamicallyQuantizableLinear(in_features=256, out_features=256, bias=False)
            )
            (linear1): Linear(in_features=256, out_features=1024, bias=True)
            (dropout): Dropout(p=0, inplace=False)
            (linear2): Linear(in_features=1024, out_features=256, bias=True)
            (norm1): LayerNorm((256,), eps=1e-05, elementwise_affine=True)
            (norm2): LayerNorm((256,), eps=1e-05, elementwise_affine=True)
            (dropout1): Dropout(p=0, inplace=False)
            (dropout2): Dropout(p=0, inplace=False)
          )
        )
      )
      (position_encoding): LearnedPositionalEncoding(
        (pe): Embedding(16384, 256)
      )
      (dropout_layer1): Dropout(p=0, inplace=False)
    )
  )
  (fusion2_2): Sequential(
    (0): Conv2d(128, 128, kernel_size=(5, 5), stride=(1, 1), padding=(2, 2), groups=128)
    (1): Conv2d(128, 64, kernel_size=(1, 1), stride=(1, 1))
  )
  (body2_3): VisionEncoder(
    (encoder): TransformerEncoder(
      (layers): ModuleList(
        (0): TransformerEncoderLayer(
          (self_attn): MultiheadAttention(
            (out_proj): NonDynamicallyQuantizableLinear(in_features=256, out_features=256, bias=False)
          )
          (linear1): Linear(in_features=256, out_features=1024, bias=True)
          (dropout): Dropout(p=0, inplace=False)
          (linear2): Linear(in_features=1024, out_features=256, bias=True)
          (norm1): LayerNorm((256,), eps=1e-05, elementwise_affine=True)
          (norm2): LayerNorm((256,), eps=1e-05, elementwise_affine=True)
          (dropout1): Dropout(p=0, inplace=False)
          (dropout2): Dropout(p=0, inplace=False)
        )
      )
    )
    (position_encoding): LearnedPositionalEncoding(
      (pe): Embedding(16384, 256)
    )
    (dropout_layer1): Dropout(p=0, inplace=False)
  )
  (body3_1): Sequential(
    (0): Conv2d(64, 64, kernel_size=(3, 3), stride=(1, 1), padding=(1, 1))
    (1): ReLU(inplace=True)
    (2): VisionEncoder(
      (encoder): TransformerEncoder(
        (layers): ModuleList(
          (0): TransformerEncoderLayer(
            (self_attn): MultiheadAttention(
              (out_proj): NonDynamicallyQuantizableLinear(in_features=256, out_features=256, bias=False)
            )
            (linear1): Linear(in_features=256, out_features=1024, bias=True)
            (dropout): Dropout(p=0, inplace=False)
            (linear2): Linear(in_features=1024, out_features=256, bias=True)
            (norm1): LayerNorm((256,), eps=1e-05, elementwise_affine=True)
            (norm2): LayerNorm((256,), eps=1e-05, elementwise_affine=True)
            (dropout1): Dropout(p=0, inplace=False)
            (dropout2): Dropout(p=0, inplace=False)
          )
          (1): TransformerEncoderLayer(
            (self_attn): MultiheadAttention(
              (out_proj): NonDynamicallyQuantizableLinear(in_features=256, out_features=256, bias=False)
            )
            (linear1): Linear(in_features=256, out_features=1024, bias=True)
            (dropout): Dropout(p=0, inplace=False)
            (linear2): Linear(in_features=1024, out_features=256, bias=True)
            (norm1): LayerNorm((256,), eps=1e-05, elementwise_affine=True)
            (norm2): LayerNorm((256,), eps=1e-05, elementwise_affine=True)
            (dropout1): Dropout(p=0, inplace=False)
            (dropout2): Dropout(p=0, inplace=False)
          )
        )
      )
      (position_encoding): LearnedPositionalEncoding(
        (pe): Embedding(16384, 256)
      )
      (dropout_layer1): Dropout(p=0, inplace=False)
    )
  )
  (fusion3_1): Sequential(
    (0): Conv2d(128, 128, kernel_size=(5, 5), stride=(1, 1), padding=(2, 2), groups=128)
    (1): Conv2d(128, 64, kernel_size=(1, 1), stride=(1, 1))
  )
  (body3_2): Sequential(
    (0): Conv2d(64, 64, kernel_size=(3, 3), stride=(1, 1), padding=(1, 1))
    (1): ReLU(inplace=True)
    (2): VisionEncoder(
      (encoder): TransformerEncoder(
        (layers): ModuleList(
          (0): TransformerEncoderLayer(
            (self_attn): MultiheadAttention(
              (out_proj): NonDynamicallyQuantizableLinear(in_features=256, out_features=256, bias=False)
            )
            (linear1): Linear(in_features=256, out_features=1024, bias=True)
            (dropout): Dropout(p=0, inplace=False)
            (linear2): Linear(in_features=1024, out_features=256, bias=True)
            (norm1): LayerNorm((256,), eps=1e-05, elementwise_affine=True)
            (norm2): LayerNorm((256,), eps=1e-05, elementwise_affine=True)
            (dropout1): Dropout(p=0, inplace=False)
            (dropout2): Dropout(p=0, inplace=False)
          )
          (1): TransformerEncoderLayer(
            (self_attn): MultiheadAttention(
              (out_proj): NonDynamicallyQuantizableLinear(in_features=256, out_features=256, bias=False)
            )
            (linear1): Linear(in_features=256, out_features=1024, bias=True)
            (dropout): Dropout(p=0, inplace=False)
            (linear2): Linear(in_features=1024, out_features=256, bias=True)
            (norm1): LayerNorm((256,), eps=1e-05, elementwise_affine=True)
            (norm2): LayerNorm((256,), eps=1e-05, elementwise_affine=True)
            (dropout1): Dropout(p=0, inplace=False)
            (dropout2): Dropout(p=0, inplace=False)
          )
        )
      )
      (position_encoding): LearnedPositionalEncoding(
        (pe): Embedding(16384, 256)
      )
      (dropout_layer1): Dropout(p=0, inplace=False)
    )
  )
  (fusion3_2): Sequential(
    (0): Conv2d(128, 128, kernel_size=(5, 5), stride=(1, 1), padding=(2, 2), groups=128)
    (1): Conv2d(128, 64, kernel_size=(1, 1), stride=(1, 1))
  )
  (body3_3): VisionEncoder(
    (linear_encoding): Linear(in_features=256, out_features=256, bias=True)
    (mlp_head): Sequential(
      (0): Linear(in_features=256, out_features=1024, bias=True)
      (1): Dropout(p=0, inplace=False)
      (2): ReLU()
      (3): Linear(in_features=1024, out_features=256, bias=True)
      (4): Dropout(p=0, inplace=False)
    )
    (encoder): TransformerEncoder(
      (layers): ModuleList(
        (0): TransformerEncoderLayer(
          (self_attn): MultiheadAttention(
            (out_proj): NonDynamicallyQuantizableLinear(in_features=256, out_features=256, bias=False)
          )
          (linear1): Linear(in_features=256, out_features=1024, bias=True)
          (dropout): Dropout(p=0, inplace=False)
          (linear2): Linear(in_features=1024, out_features=256, bias=True)
          (norm1): LayerNorm((256,), eps=1e-05, elementwise_affine=True)
          (norm2): LayerNorm((256,), eps=1e-05, elementwise_affine=True)
          (dropout1): Dropout(p=0, inplace=False)
          (dropout2): Dropout(p=0, inplace=False)
        )
      )
    )
    (dropout_layer1): Dropout(p=0, inplace=False)
  )
  (fusion3_3): Sequential(
    (0): Conv2d(192, 192, kernel_size=(5, 5), stride=(1, 1), padding=(2, 2), groups=192)
    (1): Conv2d(192, 64, kernel_size=(1, 1), stride=(1, 1))
  )
  (body3_4): VisionEncoder(
    (linear_encoding): Linear(in_features=256, out_features=256, bias=True)
    (mlp_head): Sequential(
      (0): Linear(in_features=256, out_features=1024, bias=True)
      (1): Dropout(p=0, inplace=False)
      (2): ReLU()
      (3): Linear(in_features=1024, out_features=256, bias=True)
      (4): Dropout(p=0, inplace=False)
    )
    (encoder): TransformerEncoder(
      (layers): ModuleList(
        (0): TransformerEncoderLayer(
          (self_attn): MultiheadAttention(
            (out_proj): NonDynamicallyQuantizableLinear(in_features=256, out_features=256, bias=False)
          )
          (linear1): Linear(in_features=256, out_features=1024, bias=True)
          (dropout): Dropout(p=0, inplace=False)
          (linear2): Linear(in_features=1024, out_features=256, bias=True)
          (norm1): LayerNorm((256,), eps=1e-05, elementwise_affine=True)
          (norm2): LayerNorm((256,), eps=1e-05, elementwise_affine=True)
          (dropout1): Dropout(p=0, inplace=False)
          (dropout2): Dropout(p=0, inplace=False)
        )
      )
    )
    (dropout_layer1): Dropout(p=0, inplace=False)
  )
  (tail): Conv2d(64, 3, kernel_size=(3, 3), stride=(1, 1), padding=(1, 1))
)

25-05-16 13:46:19.465 :   task: DRNet25
  model: plain
  gpu_ids: [0, 1, 2, 3]
  scale: 3
  n_channels: 3
  merge_bn: True
  merge_bn_startpoint: 400000
  path:[
    root: denoising
    pretrained_netG: None
    task: denoising\DRNet25
    log: denoising\DRNet25
    options: denoising\DRNet25\options
    models: denoising\DRNet25\models
    images: denoising\DRNet25\images
…
    G_optimizer_lr: 0.0001
    G_optimizer_clipgrad: None
    G_scheduler_type: MultiStepLR
    G_scheduler_milestones: [60000, 90000, 120000, 240000, 24000000]
    G_scheduler_gamma: 0.5
    G_regularizer_orthstep: None
    G_regularizer_clipstep: None
    checkpoint_test: 5000
    checkpoint_save: 5000
    checkpoint_print: 5000
  ]
  opt_path: options/train_drnet.json
  is_train: True

25-05-16 14:52:37.520 : Random seed: 7908
25-05-16 14:52:38.003 : Number of train images: 31,005, iters: 31,005
25-05-16 14:52:43.858 : 
Networks name: DRNet
Params number: 17746115
Net structure:
DRNet(
  (head1): Conv2d(3, 64, kernel_size=(3, 3), stride=(1, 1), padding=(1, 1))
  (head1_1): ResBlock(
    (body): Sequential(
      (0): Conv2d(64, 64, kernel_size=(3, 3), stride=(1, 1), padding=(1, 1))
      (1): ReLU(inplace=True)
      (2): Conv2d(64, 64, kernel_size=(3, 3), stride=(1, 1), padding=(1, 1))
    )
  )
  (head1_3): VisionEncoder(
    (encoder): TransformerEncoder(
      (layers): ModuleList(
        (0): TransformerEncoderLayer(
          (self_attn): MultiheadAttention(
            (out_proj): NonDynamicallyQuantizableLinear(in_features=256, out_features=256, bias=False)
          )
          (linear1): Linear(in_features=256, out_features=1024, bias=True)
          (dropout): Dropout(p=0, inplace=False)
          (linear2): Linear(in_features=1024, out_features=256, bias=True)
          (norm1): LayerNorm((256,), eps=1e-05, elementwise_affine=True)
          (norm2): LayerNorm((256,), eps=1e-05, elementwise_affine=True)
          (dropout1): Dropout(p=0, inplace=False)
          (dropout2): Dropout(p=0, inplace=False)
        )
      )
    )
    (position_encoding): LearnedPositionalEncoding(
      (pe): Embedding(4096, 256)
    )
    (dropout_layer1): Dropout(p=0, inplace=False)
  )
  (body1_1): Sequential(
    (0): ResBlock(
      (body): Sequential(
        (0): Conv2d(64, 64, kernel_size=(3, 3), stride=(1, 1), padding=(1, 1))
        (1): ReLU(inplace=True)
        (2): Conv2d(64, 64, kernel_size=(3, 3), stride=(1, 1), padding=(1, 1))
      )
    )
    (1): Conv2d(64, 64, kernel_size=(3, 3), stride=(1, 1), padding=(1, 1))
    (2): ReLU(inplace=True)
  )
  (body1_2): Sequential(
    (0): VisionEncoder(
      (encoder): TransformerEncoder(
        (layers): ModuleList(
          (0): TransformerEncoderLayer(
            (self_attn): MultiheadAttention(
              (out_proj): NonDynamicallyQuantizableLinear(in_features=256, out_features=256, bias=False)
            )
            (linear1): Linear(in_features=256, out_features=1024, bias=True)
            (dropout): Dropout(p=0, inplace=False)
            (linear2): Linear(in_features=1024, out_features=256, bias=True)
            (norm1): LayerNorm((256,), eps=1e-05, elementwise_affine=True)
            (norm2): LayerNorm((256,), eps=1e-05, elementwise_affine=True)
            (dropout1): Dropout(p=0, inplace=False)
            (dropout2): Dropout(p=0, inplace=False)
          )
        )
      )
      (position_encoding): LearnedPositionalEncoding(
        (pe): Embedding(4096, 256)
      )
      (dropout_layer1): Dropout(p=0, inplace=False)
    )
    (1): ResBlock(
      (body): Sequential(
        (0): Conv2d(64, 64, kernel_size=(3, 3), stride=(1, 1), padding=(1, 1))
        (1): ReLU(inplace=True)
        (2): Conv2d(64, 64, kernel_size=(3, 3), stride=(1, 1), padding=(1, 1))
      )
    )
  )
  (body2_1): Sequential(
    (0): ResBlock(
      (body): Sequential(
        (0): Conv2d(64, 64, kernel_size=(3, 3), stride=(1, 1), padding=(1, 1))
        (1): ReLU(inplace=True)
        (2): Conv2d(64, 64, kernel_size=(3, 3), stride=(1, 1), padding=(1, 1))
      )
    )
    (1): VisionEncoder(
      (encoder): TransformerEncoder(
        (layers): ModuleList(
          (0): TransformerEncoderLayer(
            (self_attn): MultiheadAttention(
              (out_proj): NonDynamicallyQuantizableLinear(in_features=256, out_features=256, bias=False)
            )
            (linear1): Linear(in_features=256, out_features=1024, bias=True)
            (dropout): Dropout(p=0, inplace=False)
            (linear2): Linear(in_features=1024, out_features=256, bias=True)
            (norm1): LayerNorm((256,), eps=1e-05, elementwise_affine=True)
            (norm2): LayerNorm((256,), eps=1e-05, elementwise_affine=True)
            (dropout1): Dropout(p=0, inplace=False)
            (dropout2): Dropout(p=0, inplace=False)
          )
        )
      )
      (position_encoding): LearnedPositionalEncoding(
        (pe): Embedding(4096, 256)
      )
      (dropout_layer1): Dropout(p=0, inplace=False)
    )
  )
  (fusion2_1): Sequential(
    (0): Conv2d(128, 128, kernel_size=(5, 5), stride=(1, 1), padding=(2, 2), groups=128)
    (1): Conv2d(128, 64, kernel_size=(1, 1), stride=(1, 1))
  )
  (body2_2): Sequential(
    (0): ResBlock(
      (body): Sequential(
        (0): Conv2d(64, 64, kernel_size=(3, 3), stride=(1, 1), padding=(1, 1))
        (1): ReLU(inplace=True)
        (2): Conv2d(64, 64, kernel_size=(3, 3), stride=(1, 1), padding=(1, 1))
      )
    )
    (1): VisionEncoder(
      (encoder): TransformerEncoder(
        (layers): ModuleList(
          (0): TransformerEncoderLayer(
            (self_attn): MultiheadAttention(
              (out_proj): NonDynamicallyQuantizableLinear(in_features=256, out_features=256, bias=False)
            )
            (linear1): Linear(in_features=256, out_features=1024, bias=True)
            (dropout): Dropout(p=0, inplace=False)
            (linear2): Linear(in_features=1024, out_features=256, bias=True)
            (norm1): LayerNorm((256,), eps=1e-05, elementwise_affine=True)
            (norm2): LayerNorm((256,), eps=1e-05, elementwise_affine=True)
            (dropout1): Dropout(p=0, inplace=False)
            (dropout2): Dropout(p=0, inplace=False)
          )
        )
      )
      (position_encoding): LearnedPositionalEncoding(
        (pe): Embedding(4096, 256)
      )
      (dropout_layer1): Dropout(p=0, inplace=False)
    )
  )
  (fusion2_2): Sequential(
    (0): Conv2d(128, 128, kernel_size=(5, 5), stride=(1, 1), padding=(2, 2), groups=128)
    (1): Conv2d(128, 64, kernel_size=(1, 1), stride=(1, 1))
  )
  (body2_3): VisionEncoder(
    (encoder): TransformerEncoder(
      (layers): ModuleList(
        (0): TransformerEncoderLayer(
          (self_attn): MultiheadAttention(
            (out_proj): NonDynamicallyQuantizableLinear(in_features=256, out_features=256, bias=False)
          )
          (linear1): Linear(in_features=256, out_features=1024, bias=True)
          (dropout): Dropout(p=0, inplace=False)
          (linear2): Linear(in_features=1024, out_features=256, bias=True)
          (norm1): LayerNorm((256,), eps=1e-05, elementwise_affine=True)
          (norm2): LayerNorm((256,), eps=1e-05, elementwise_affine=True)
          (dropout1): Dropout(p=0, inplace=False)
          (dropout2): Dropout(p=0, inplace=False)
        )
      )
    )
    (position_encoding): LearnedPositionalEncoding(
      (pe): Embedding(4096, 256)
    )
    (dropout_layer1): Dropout(p=0, inplace=False)
  )
  (body3_1): Sequential(
    (0): Conv2d(64, 64, kernel_size=(3, 3), stride=(1, 1), padding=(1, 1))
    (1): ReLU(inplace=True)
    (2): VisionEncoder(
      (encoder): TransformerEncoder(
        (layers): ModuleList(
          (0-1): 2 x TransformerEncoderLayer(
            (self_attn): MultiheadAttention(
              (out_proj): NonDynamicallyQuantizableLinear(in_features=256, out_features=256, bias=False)
            )
            (linear1): Linear(in_features=256, out_features=1024, bias=True)
            (dropout): Dropout(p=0, inplace=False)
            (linear2): Linear(in_features=1024, out_features=256, bias=True)
            (norm1): LayerNorm((256,), eps=1e-05, elementwise_affine=True)
            (norm2): LayerNorm((256,), eps=1e-05, elementwise_affine=True)
            (dropout1): Dropout(p=0, inplace=False)
            (dropout2): Dropout(p=0, inplace=False)
          )
        )
      )
      (position_encoding): LearnedPositionalEncoding(
        (pe): Embedding(4096, 256)
      )
      (dropout_layer1): Dropout(p=0, inplace=False)
    )
  )
  (fusion3_1): Sequential(
    (0): Conv2d(128, 128, kernel_size=(5, 5), stride=(1, 1), padding=(2, 2), groups=128)
    (1): Conv2d(128, 64, kernel_size=(1, 1), stride=(1, 1))
  )
  (body3_2): Sequential(
    (0): Conv2d(64, 64, kernel_size=(3, 3), stride=(1, 1), padding=(1, 1))
    (1): ReLU(inplace=True)
    (2): VisionEncoder(
      (encoder): TransformerEncoder(
        (layers): ModuleList(
          (0-1): 2 x TransformerEncoderLayer(
            (self_attn): MultiheadAttention(
              (out_proj): NonDynamicallyQuantizableLinear(in_features=256, out_features=256, bias=False)
            )
            (linear1): Linear(in_features=256, out_features=1024, bias=True)
            (dropout): Dropout(p=0, inplace=False)
            (linear2): Linear(in_features=1024, out_features=256, bias=True)
            (norm1): LayerNorm((256,), eps=1e-05, elementwise_affine=True)
            (norm2): LayerNorm((256,), eps=1e-05, elementwise_affine=True)
            (dropout1): Dropout(p=0, inplace=False)
            (dropout2): Dropout(p=0, inplace=False)
          )
        )
      )
      (position_encoding): LearnedPositionalEncoding(
        (pe): Embedding(4096, 256)
      )
      (dropout_layer1): Dropout(p=0, inplace=False)
    )
  )
  (fusion3_2): Sequential(
    (0): Conv2d(128, 128, kernel_size=(5, 5), stride=(1, 1), padding=(2, 2), groups=128)
    (1): Conv2d(128, 64, kernel_size=(1, 1), stride=(1, 1))
  )
  (body3_3): VisionEncoder(
    (linear_encoding): Linear(in_features=256, out_features=256, bias=True)
    (mlp_head): Sequential(
      (0): Linear(in_features=256, out_features=1024, bias=True)
      (1): Dropout(p=0, inplace=False)
      (2): ReLU()
      (3): Linear(in_features=1024, out_features=256, bias=True)
      (4): Dropout(p=0, inplace=False)
    )
    (encoder): TransformerEncoder(
      (layers): ModuleList(
        (0): TransformerEncoderLayer(
          (self_attn): MultiheadAttention(
            (out_proj): NonDynamicallyQuantizableLinear(in_features=256, out_features=256, bias=False)
          )
          (linear1): Linear(in_features=256, out_features=1024, bias=True)
          (dropout): Dropout(p=0, inplace=False)
          (linear2): Linear(in_features=1024, out_features=256, bias=True)
          (norm1): LayerNorm((256,), eps=1e-05, elementwise_affine=True)
          (norm2): LayerNorm((256,), eps=1e-05, elementwise_affine=True)
          (dropout1): Dropout(p=0, inplace=False)
          (dropout2): Dropout(p=0, inplace=False)
        )
      )
    )
    (dropout_layer1): Dropout(p=0, inplace=False)
  )
  (fusion3_3): Sequential(
    (0): Conv2d(192, 192, kernel_size=(5, 5), stride=(1, 1), padding=(2, 2), groups=192)
    (1): Conv2d(192, 64, kernel_size=(1, 1), stride=(1, 1))
  )
  (body3_4): VisionEncoder(
    (linear_encoding): Linear(in_features=256, out_features=256, bias=True)
    (mlp_head): Sequential(
      (0): Linear(in_features=256, out_features=1024, bias=True)
      (1): Dropout(p=0, inplace=False)
      (2): ReLU()
      (3): Linear(in_features=1024, out_features=256, bias=True)
      (4): Dropout(p=0, inplace=False)
    )
    (encoder): TransformerEncoder(
      (layers): ModuleList(
        (0): TransformerEncoderLayer(
          (self_attn): MultiheadAttention(
            (out_proj): NonDynamicallyQuantizableLinear(in_features=256, out_features=256, bias=False)
          )
          (linear1): Linear(in_features=256, out_features=1024, bias=True)
          (dropout): Dropout(p=0, inplace=False)
          (linear2): Linear(in_features=1024, out_features=256, bias=True)
          (norm1): LayerNorm((256,), eps=1e-05, elementwise_affine=True)
          (norm2): LayerNorm((256,), eps=1e-05, elementwise_affine=True)
          (dropout1): Dropout(p=0, inplace=False)
          (dropout2): Dropout(p=0, inplace=False)
        )
      )
    )
    (dropout_layer1): Dropout(p=0, inplace=False)
  )
  (tail): Conv2d(64, 3, kernel_size=(3, 3), stride=(1, 1), padding=(1, 1))
)

25-05-16 14:52:46.701 : 
 |  mean  |  min   |  max   |  std   || shape               
 |  0.002 | -0.431 |  0.525 |  0.178 | torch.Size([64, 3, 3, 3]) || head1.weight
 | -0.001 | -0.329 |  0.276 |  0.180 | torch.Size([64]) || head1.bias
 |  0.000 | -0.495 |  0.459 |  0.097 | torch.Size([64, 64, 3, 3]) || head1_1.body.0.weight
 |  0.074 | -0.072 |  0.204 |  0.065 | torch.Size([64]) || head1_1.body.0.bias
…
